models/ed16nl2dr0.1dt400.pth (torch, 619273 bytes, 27 tensors)

embedding.weight f4 [16, 1]
0.5552231 -0.970656 0.7887646 0.80500716 -0.71771634 -0.67657286 -0.73928314 -0.2133417
0.043171298 -0.7787015 -0.004321767 -0.60554224 0.37747025 -0.60870135 0.45957884 -0.9451605
00000000: 1a23 0e3f e97c 78bf 7aec 493f f314 4e3f
00000010: 42bc 37bf e133 2dbf a941 3dbf 3f76 5abe
00000020: 63d4 303d fb58 47bf 9c9d 8dbb d104 1bbf
00000030: c843 c13e dad3 1bbf eb4d eb3e 0af6 71bf

embedding.bias f4 [16]
-0.9153255 0.14821257 0.9785159 0.5713797 -0.2918495 -0.9602705 0.62716985 -0.031219203
0.55827504 0.8949892 -0.65650284 -0.44955426 -0.24404834 0.92817944 0.41321403 0.4370027
00000000: c652 6abf 09c5 173e 0580 7a3f f145 123f
00000010: 4c6d 95be 4ad4 75bf 348e 203f 6abf ffbc
00000020: 1deb 0e3f 031e 653f 9210 28bf fa2b e6be
00000030: cfe7 79be 2b9d 6d3f ca90 d33e d1be df3e

transformer_encoder.layers.0.self_attn.in_proj_weight f4 [48, 16]
0.045124102 -0.15684938 0.011686546 -0.29358783 -0.28218874 0.09857999 -0.30074188 -0.21205162
-0.29333016 -0.25329772 0.30453804 -0.2769349 0.26454693 0.017721355 0.20321521 -0.07313015
-0.033702813 -0.008743628 -0.10354284 -0.028060231 0.29045 -0.12802581 0.17269827 -0.2625875
-0.22045034 -0.09724781 0.009209291 -0.10582157 -0.122660555 -0.14132972 0.25721097 0.035973165
-0.042377237 -0.12087369 -0.021719832 -0.21930595 -0.032044746 -0.24638753 -0.1401199 -0.25406483
0.1267407 -0.30792946 0.22391717 0.28623393 0.19046293 -0.10350505 0.106750496 -0.0755059
0.095714614 -0.014491391 0.098939046 0.3010237 -0.13739848 0.045232315 -0.012567142 0.07982286
0.15167764 -0.3004196 0.15514573 0.14153662 -0.1299798 -0.1202756 0.02836329 0.022065038
0.061161313 0.16654155 -0.06663476 -0.03318469 -0.2883871 -0.006260118 -0.24529168 0.28934237
0.21103513 0.07196939 -0.14305137 -0.1337835 0.122999564 -0.045791693 -0.19073707 -0.22939087
0.18836701 0.1074862 0.23909412 -0.113964975 -0.1340355 -0.248076 -0.09568801 0.19961832
0.18231633 -0.11341306 0.29428235 0.010978188 -0.08722452 0.15980704 0.22110754 0.2678115
-0.26220927 0.10486414 0.2847772 0.27849403 -0.082516536 -0.10078266 -0.18035612 0.27859262
-0.106731094 0.06518683 0.12221918 0.16368929 0.19449592 -0.13260895 -0.20832224 0.08957782
-0.12465763 -0.02949415 0.14531246 -0.06276461 0.25171596 0.13065283 -0.14058703 0.087795146
-0.10841645 -0.22447373 0.12336514 0.28529242 -0.10252718 0.08246475 0.02893406 0.28912765
0.27519208 0.3388975 -0.12572502 -0.17487358 0.16133112 -0.22339287 0.18828717 -0.09579499
-0.20586953 0.14637665 -0.2559937 0.100670315 -0.26503608 0.11277878 0.29831058 -0.06581166
-0.018268162 0.19796814 0.13043061 -0.05891459 -0.2780269 0.15107252 -0.1860815 -0.1288741
-0.22587506 0.14628369 0.04503275 -0.26888007 -0.23649062 -0.2746699 0.23657706 -0.24673451
0.23965797 -0.25198698 -0.057126828 0.27696207 0.04267408 -0.05602272 0.11516564 0.17544468
0.21140712 -0.14024869 0.15781519 -0.119850166 -0.11991534 -0.10432143 0.28039575 -0.019699248
0.26781273 0.096167035 -0.037227627 -0.05705512 0.26974553 -0.17068346 -0.02420379 -0.050639454
0.122557245 0.06451371 0.11583126 -0.06469968 -0.14250937 0.10275589 -0.2665709 0.10576211
0.21020682 0.3333825 -0.30090785 -0.012152724 0.20221624 -0.11840329 0.22318204 0.148711
0.22016829 -0.1404783 0.2587653 0.10313339 -0.009805819 -0.2336787 0.06617824 0.022173623
0.10966989 -0.16892038 0.16819313 0.0636287 -0.26821855 0.19346292 -0.029040985 -0.041560896
0.13922502 -0.13473752 -0.1801623 0.067308135 0.108071156 -0.26429552 0.19858673 -0.041081402
0.12982737 0.16839582 -0.29981706 -0.16083357 0.13561434 -0.00016446366 0.008994026 -0.19558513
-0.20871241 0.058034915 -0.080231674 0.24345018 -0.27627066 -0.16564535 0.18072058 0.12443398
-0.1271858 -0.18281356 0.23783872 -0.0101123145 -0.09604707 -0.16525759 -0.23579198 0.16726954
0.25982788 -0.04056933 -0.10049895 -0.067551374 -0.113561735 0.12833117 0.29891178 0.03511642
00000000: 0dd4 383d 209d 20be ed78 3f3c 2551 96be
00000010: 0b7b 90be 4ee4 c93d d7fa 99be 0f24 59be
00000020: 5f2f 96be 3db0 81be 69ec 9b3e 69ca 8dbe
00000030: b272 873e 602c 913c a617 503e 43c5 95bd
00000040: f60b 0abd 6f41 0fbc 450e d4bd 92de e5bc
00000050: ddb5 943e 3319 03be d1d7 303e de71 86be
00000060: bcbd 61be dc29 c7bd 91e2 163c fbb8 d8bd
00000070: 7535 fbbd bdb8 10be 28b1 833e 9958 133d
00000080: c193 2dbd a08c f7bd caed b1bc bd91 60be
00000090: 5a41 03bd 034d 7cbe 977b 0fbe c914 82be
000000a0: 50c8 013e eea8 9dbe 8b4a 653e 418d 923e
000000b0: b708 433e 75fa d3bd 01a0 da3d d6a2 9abd
000000c0: 0606 c43d 4d6d 6dbc 8ea0 ca3d c71f 9a3e
000000d0: 30b2 0cbe 8545 393d 6ae6 4dbc 2b7a a33d
000000e0: 6251 1b3e 99d0 99be 86de 1e3e faee 103e
000000f0: 6d19 05be 0e53 f6bd 215a e83c bdc1 b43c
00000100: 4984 7a3d de89 2a3e ce77 88bd abec 07bd
00000110: 79a7 93be ad21 cdbb be2d 7bbe af24 943e
00000120: 9819 583e b064 933d 0f7c 12be 8bfe 08be
00000130: 32e7 fb3d 1290 3bbd 9450 43be 71e5 6abe
00000140: 48e3 403e ba21 dc3d 17d5 743e 7866 e9bd
00000150: 9a40 09be a307 7ebe 13f8 c3bd bf68 4c3e
00000160: 22b1 3a3e 1b45 e8bd 2dac 963e dcdd 333c
00000170: c5a2 b2bd 75a4 233e 046a 623e 971e 893e
00000180: 4b40 86be 03c3 d63d 51ce 913e c596 8e3e
00000190: 6efe a8bd 2467 cebd 46af 38be b1a3 8e3e
000001a0: d595 dabd ac80 853d 0d4e fa3d 2a9e 273e
000001b0: f029 473e a4ca 07be 6d52 55be 9374 b73d
000001c0: 804c ffbd b79d f1bc cacc 143e bb8a 80bd
000001d0: eae0 803e dbc9 053e 0cf6 0fbe f1cd b33d
000001e0: 7209 debd 71dc 65be dda6 fc3d d911 923e
000001f0: c5f9 d1bd 47e3 a83d 1f07 ed3c 8a08 943e
00000200: fae5 8c3e f983 ad3e 0fbe 00be 0f12 33be
00000210: fc33 253e 1ac1 64be 5ace 403e 2a30 c4bd
00000220: 76cf 52be c3e3 153e 9b11 83be 3d2c ce3d
00000230: cfb2 87be 90f8 e63d 2abc 983e 43c8 86bd
00000240: 1da7 95bc 29b8 4a3e 9a8f 053e 6d50 71bd
00000250: 8b59 8ebe c1b2 1a3e 268c 3ebe 92f7 03be
00000260: cb4b 67be 64cb 153e 4374 383d a6aa 89be
00000270: 992a 72be 88a1 8cbe 4241 723e f9a7 7cbe
00000280: e668 753e 7004 81be d2fd 69bd f9cd 8d3e
00000290: 04cb 2e3d 1478 65bd f7db eb3d c5a7 333e
000002a0: 1c7b 583e 5a9d 0fbe 4e9a 213e 0174 f5bd
000002b0: 2c96 f5bd 79a6 d5bd 0890 8f3e 5160 a1bc
000002c0: c01e 893e 39f3 c43d ff7b 18bd a1b2 69bd
000002d0: 161c 8a3e a5c7 2ebe 0747 c6bc 516b 4fbd
000002e0: 4bff fa3d c41f 843d f138 ed3d 4481 84bd
000002f0: faed 11be ae71 d23d fb7b 88be ce99 d83d
00000300: 7540 573e 1cb1 aa3e 9810 9abe 381c 47bc
00000310: c611 4f3e 6d7d f2bd d589 643e b247 183e
00000320: cc73 613e 8bd9 0fbe e37c 843e 9937 d33d
00000330: 96a8 20bc 7849 6fbe 7588 873d 75a5 b53c
00000340: 9b9a e03d 77f9 2cbe d23a 2c3e c44f 823d
00000350: f153 89be 251b 463e 5ce7 edbc c23b 2abd
00000360: 0191 0e3e a2f8 09be 777c 38be d9d8 893d
00000370: 6954 dd3d be51 87be 525a 4b3e f944 28bd
00000380: 77f1 043e f46f 2c3e 9f81 99be 8eb1 24be
00000390: 7cde 0a3e e173 2cb9 ae5b 133c 7847 48be
000003a0: b5b8 55be 05b6 6d3d 8150 a4bd 014b 793e
000003b0: 5973 8dbe ef9e 29be d10e 393e 3ed7 fe3d
000003c0: ff3c 02be 7a33 3bbe fe8b 733e 1fae 25bc
000003d0: 54b4 c4bd 4939 29be 7473 71be b548 2b3e
000003e0: 2908 853e 072c 26bd 65d2 cdbd 6058 8abd
000003f0: 0e93 e8bd 3f69 033e f70a 993e 3cd6 0f3d

transformer_encoder.layers.0.self_attn.in_proj_bias f4 [48]
-0.0042818487 -0.00924488 -0.0064428286 0.007910453 0.0017796971 -0.010459142 0.023480546 0.011316428
0.008544153 0.008209234 0.0042800857 -0.025382444 0.008758012 -0.007687201 -0.0018346823 0.0007731049
-0.0005580404 1.7158864e-05 0.00057213765 7.269064e-05 3.0699143e-06 0.0002362636 -7.827375e-05 7.63509e-05
-8.91834e-06 -2.3648818e-05 -7.4927586e-05 0.000119300654 -0.0002761917 1.5200142e-05 -0.00011383322 6.762677e-05
-0.021920275 -0.0011641758 0.0051004793 0.007822341 0.009846435 -0.0053081047 0.018733555 0.00019195658
0.0025830055 0.0025560781 -0.0006328804 -0.005587031 -0.009269063 0.013085056 0.0072820103 0.0027022657
00000000: c04e 8cbb d677 17bc 5d1e d3bb d89a 013c
00000010: ba44 e93a d25c 2bbc 465a c03c 8a68 393c
00000020: c6fc 0b3c 0680 063c f63f 8c3b d8ee cfbc
00000030: c47d 0f3c eae4 fbbb b979 f0ba 31aa 4a3a
00000040: 7549 12ba 61f0 8f37 82fb 153a 7d71 9838
00000050: ba04 4e36 87bd 7739 e626 a4b8 941e a038
00000060: fb9f 15b7 7361 c6b7 7122 9db8 0d31 fa38
00000070: d3cd 90b9 1d04 7f37 bfb9 eeb8 d8d2 8d38
00000080: 2692 b3bc 4297 98ba ec21 a73b 4729 003c
00000090: f152 213c 9cef adbb 1d77 993c f447 4939
000000a0: a447 293b e083 273b e2e7 25ba 6a13 b7bb
000000b0: 45dd 17bc b462 563c ee9d ee3b 7f18 313b

transformer_encoder.layers.0.self_attn.out_proj.weight f4 [16, 16]
-0.07945107 -0.012720309 0.012836773 0.20896241 -0.1788938 0.0335429 -0.03484871 -0.20291352
0.117283896 -0.12033091 -0.24681792 0.14237803 0.1527678 -0.011685322 0.1605973 -0.018160336
0.1469663 -0.23883335 0.06811871 0.23798881 -0.09206996 0.22954857 -0.0820181 0.02032353
-0.20527375 0.22155763 -0.10078907 0.0271904 0.22431746 0.20727853 0.14101717 0.20669587
0.10723477 0.051062305 -0.082442924 0.124685735 0.22479598 0.12997836 -0.21993008 0.0929256
-0.033451192 0.2085285 -0.20724307 0.21662858 0.05122439 -0.08395137 0.18145153 0.14732811
0.2106939 0.08488924 -0.17705612 -0.12601326 0.021760913 -0.15913378 0.0427391 -0.23485035
0.13398527 0.22475742 -0.14174879 -0.1127932 -0.112989664 -0.13967429 0.24081251 0.20771158
0.22460307 0.013284016 0.10988289 0.05149835 -0.10308136 0.2153856 0.18123837 -0.003677087
0.22370917 -0.18429397 0.17969342 -0.075118765 -0.22055769 0.16014868 0.002390821 0.11625972
-0.22865447 -0.21152131 0.21706639 0.20564596 0.18423802 -0.22584835 0.08232021 -0.0467115
-0.2025457 0.12922168 0.0005287851 -0.1916365 0.06279699 0.16017415 0.22991505 0.2194641
0.18438703 0.077086955 0.22107643 -0.12912439 -0.09981144 -0.10485274 -0.054789674 -0.037760444
-0.17871083 -0.13706337 -0.16739689 0.07594104 0.24834098 -0.17353113 0.20265594 -0.16316937
-0.025644666 -0.21789184 0.13620073 0.24286672 -0.20908156 0.105975285 -0.032365624 0.20151512
-0.13541903 0.009168048 -0.058395185 -0.17908165 0.21292278 -0.2166704 0.24902722 0.123061426
0.20752293 -0.006913086 -0.081584476 -0.03255359 -0.18332297 -0.2322569 -0.012894066 0.16441596
0.21360034 -0.07408496 0.14752 -0.003687406 -0.24572659 -0.21217278 0.09702222 -0.20229669
0.21620314 0.0069904337 -0.09014332 -0.19292037 0.012130073 0.14445561 -0.17423086 -0.043275785
-0.06832558 -0.116170704 0.09051771 0.23963213 -0.022291472 -0.09402587 0.097672336 0.06439598
0.13979673 0.11711019 -0.018815152 -0.23404014 -0.11671754 0.20703802 0.21660732 -0.22417088
0.13561633 0.19771351 0.08424805 0.23063466 0.17684934 -0.06537471 -0.25156027 -0.0343082
0.24276577 0.044386268 -0.037518412 0.21498097 -0.06494519 0.2361886 0.23423527 -0.13566408
-0.15513116 -0.08260338 0.21107827 0.070733525 -0.00013440357 0.09445137 -0.165945 0.13739912
-0.19597112 0.21310693 0.027036237 0.15816818 0.024368241 -0.2415154 0.15164286 -0.17809558
0.20749381 -0.109338604 -0.22490658 0.1362312 -0.17219849 0.14404209 0.20210257 -0.09733887
0.055164896 -0.05645072 -0.1287066 -0.14191902 -0.18695788 0.17903511 -0.1706021 0.043073215
-0.074854605 0.11903106 0.22539867 0.21897523 0.22065225 -0.07851067 -0.019037763 0.030080266
0.17338176 -0.13123971 0.24169639 0.0007634981 0.25180185 -0.13856484 0.20361616 -0.01958272
-0.07686274 -0.11953408 0.22920384 0.17075422 -0.113082014 0.13665691 0.07993208 0.18720643
-0.08431723 0.07789602 0.05015491 -0.08925291 0.019747073 0.14444579 0.12568003 -0.19863027
0.20432304 0.19878149 -0.23233499 0.012309301 0.0075985063 -0.23518391 -0.054100636 -0.041715864
00000000: 3eb7 a2bd d868 50bc 5451 523c 3efa 553e
00000010: f02f 37be 4864 093d 85bd 0ebd 90c8 4fbe
00000020: 8a32 f03d 0d70 f6bd d6bd 7cbe 8ccb 113e
00000030: 2a6f 1c3e cb73 3fbc 9e73 243e fcc4 94bc
00000040: 557e 163e bb90 74be d281 8b3d 57b3 733e
00000050: 2d8f bcbd c80e 6b3e 1bf9 a7bd 887d a63c
00000060: 4833 52be 01e0 623e 806a cebd 67be de3c
00000070: 7ab3 653e d340 543e ce66 103e 15a8 533e
00000080: e79d db3d b526 513d d6d7 a8bd 3c5b ff3d
00000090: eb30 663e 0c19 053e 5a35 61be c74f be3d
000000a0: 1e04 09bd 7f88 553e 8737 54be e2d3 5d3e
000000b0: aad0 513d b2ee abbd 6ece 393e 2edd 163e
000000c0: 24c0 573e 69da ad3d 334e 35be 9f09 01be
000000d0: f143 b23c f7f3 22be 320f 2f3d 9c7c 70be
000000e0: 6f33 093e cf26 663e 9826 11be 1f00 e7bd
000000f0: 2067 e7bd c706 0fbe 8e97 763e 58b2 543e
00000100: 59fe 653e 34a5 593c 480a e13d efef 523d
00000110: 521c d3bd 0b8e 5c3e 8d96 393e 48fb 70bb
00000120: 0414 653e 8fb7 3cbe 8d01 383e ded7 99bd
00000130: e0d9 61be 04fe 233e 52af 1c3b 9319 ee3d
00000140: 6624 6abe 0b99 58be a746 5e3e db94 523e
00000150: e4a8 3c3e ca44 67be 8097 a83d 8f54 3fbd
00000160: 2468 4fbe b052 043e 2b9e 0a3a 5c3c 44be
00000170: b59b 803d b104 243e da6e 6b3e 32bb 603e
00000180: f4cf 3c3e c4df 9d3d dc61 623e 2f39 04be
00000190: f169 ccbd 09bd d6bd 236b 60bd b2aa 1abd
000001a0: f9ff 36be 575a 0cbe 176a 2bbe fa86 9b3d
000001b0: 194d 7e3e 25b2 31be 0a85 4f3e df15 27be
000001c0: c314 d2bc 0a1f 5fbe 3478 0b3e 0eb2 783e
000001d0: 7a19 56be 9209 d93d d191 04bd fb59 4e3e
000001e0: 49ab 0abe 9535 163c ca2f 6fbd 2e61 37be
000001f0: 6e08 5a3e d8de 5dbe fe00 7f3e a107 fc3d
00000200: e480 543e 2b87 e2bb c315 a7bd ea56 05bd
00000210: 04b9 3bbe c1d4 6dbe a241 53bc a85c 283e
00000220: 0cba 5a3e dbb9 97bd 7c0f 173e 68a8 71bb
00000230: c09f 7bbe d243 59be 96b3 c63d dd26 4fbe
00000240: 5b64 5d3e 0210 e53b 109d b8bd eb8c 45be
00000250: 37bd 463c 2cec 133e 9369 32be f341 31bd
00000260: 48ee 8bbd e8ea edbd 5961 b93d 2062 753e
00000270: 9b9c b6bc a390 c0bd 6f08 c83d 0ae2 833d
00000280: e026 0f3e 78d7 ef3d 3c22 9abc 38a8 6fbe
00000290: 9b09 efbd c601 543e 4fce 5d3e 0d8d 65be
000002a0: 02df 0a3e 6975 4a3e 3e8a ac3d 7e2b 6c3e
000002b0: fe17 353e 2de3 85bd 82cc 80be c186 0cbd
000002c0: 9797 783e 60ce 353d e8ac 19bd f923 5c3e
000002d0: fc01 85bd 6ddb 713e 5fdb 6f3e 86eb 0abe
000002e0: b4da 1ebe f62b a9bd e724 583e bddc 903d
000002f0: afee 0cb9 b86f c13d 7ced 29be 5bb2 0c3e
00000300: a7ac 48be b438 5a3e 197b dd3c d7f6 213e
00000310: e89f c73c d04f 77be 4448 1b3e b05e 36be
00000320: 4279 543e ebec dfbd e94d 66be 3180 0b3e
00000330: cd54 30be c57f 133e faf3 4e3e 9a59 c7bd
00000340: 96f4 613d df38 67bd aacb 03be 3853 11be
00000350: e371 3fbe fb54 373e 51b2 2ebe 8a6d 303d
00000360: 5f4d 99bd 8ec6 f33d e9ce 663e 0b3b 603e
00000370: aaf2 613e 34ca a0bd 15f5 9bbc e46a f63c
00000380: fd8a 313e b463 06be 427f 773e 7d25 483a
00000390: 2cec 803e f1e3 0dbe c180 503e f16b a0bc
000003a0: 366a 9dbd 49ce f4bd 69b4 6a3e 32da 2e3e
000003b0: 8b97 e7bd caef 0b3e 6eb3 a33d 0bb3 3f3e
000003c0: 83ae acbd f387 9f3d 3c6f 4d3d 3bca b6bd
000003d0: 9dc4 a13c 99e9 133e 44b2 003e bc65 4bbe
000003e0: 0f3a 513e 608d 4b3e 39e9 6dbe f3ac 493c
000003f0: e4fc f83b 0dd4 70be a198 5dbd 41de 2abd

transformer_encoder.layers.0.self_attn.out_proj.bias f4 [16]
0.0013737624 0.0011474947 0.004611099 -0.0026502865 0.0039450573 0.012547373 -0.008221008 0.0006162511
0.006764493 -0.023032276 0.0065018656 5.327942e-06 0.004263931 -0.013953771 0.0070362287 -0.005749711
00000000: d10f b43a 8867 963a b418 973b 6eb0 2dbb
00000010: 8a45 813b 7f93 4d3c 68b1 06bc e98b 213a
00000020: aea8 dd3b 2fae bcbc 9a0d d53b acc6 b236
00000030: 72b8 8b3b 5c9e 64bc 2a90 e63b 1268 bcbb

transformer_encoder.layers.0.linear1.weight f4 [2048, 16]
0.16906328 0.11388911 -0.13071792 0.006724095 0.038331468 -0.15998344 0.04464104 -0.12299272
0.17712513 -0.07964361 0.14032666 -0.108581334 -0.14510195 -0.19353116 0.16979168 0.23021926
-0.043155145 -0.03873305 0.012275918 0.13616954 0.18701228 0.17266974 0.09856286 -0.25601035
-0.2518634 0.0047688857 -0.105582334 -0.14368944 -0.18710268 -0.06191895 -0.04948047 0.13448517
0.18603699 0.07285998 -0.10293393 -0.16631751 0.14703798 -0.1303414 -0.014662428 0.07885156
0.2428501 -0.03456033 -0.20379114 0.060078207 0.12043905 0.030837571 0.009642668 0.045157306
-0.0073642735 0.24952868 0.14506903 0.07130143 0.13354859 0.14922166 0.0808034 -0.08247442
-0.09128343 0.05046768 -0.13571332 0.24982893 0.06515051 -0.017070547 -0.2140448 0.25482157
-0.019508995 -0.14534084 -0.08126469 -0.11416542 -0.10400863 -0.1948133 -0.22672515 -0.022227613
0.2392435 -0.09002719 -0.14575332 0.11240662 -0.028446855 -0.04820569 -0.13045317 -0.1843637
0.13339064 -0.15233824 0.18340638 0.16452605 -0.05539179 0.031647395 -0.12071422 -0.02207247
0.03346381 -0.0036990368 -0.075626805 0.038862664 -0.20917045 0.17599563 -0.16601923 -0.22988933
-0.13960345 -0.13579322 -0.1621084 -0.18143575 -0.11621513 -0.14485507 0.194929 -0.0155305965
0.07099764 0.19569543 0.2042505 0.18735561 0.13000202 -0.25201693 0.1657265 0.16063535
-0.13939254 -0.24505137 -0.15477295 0.23402405 0.16750076 -0.13368446 0.1204957 0.05413998
0.061283637 0.17309113 0.017749775 -0.26645914 0.15647483 0.018215219 0.14475462 0.13365373
0.011897102 -0.09681601 0.029834341 0.002527478 0.0043760687 -0.020859053 0.24353024 0.18874411
-0.17370035 -0.13231355 0.15475973 0.1076061 0.13592803 0.02105022 0.22492862 -0.11392091
-0.12216647 -0.07899758 0.17747083 -0.14885908 -0.1930965 0.02884181 -0.025107732 0.007860754
-0.10440291 -0.02458784 0.14508153 -0.20843503 0.22801895 0.14978842 -0.006892735 0.23059991
-0.06607467 0.036220055 -0.057416793 0.17349121 -0.073234424 -0.12720753 0.08023025 0.125485
0.108942345 -0.08181604 -0.11000078 0.11999311 -0.20853513 -0.028046953 -0.05685868 -0.13619862
-0.13235286 -0.1749843 0.17266494 0.048640497 -0.1328708 0.09721731 -0.015372379 -0.21990474
-0.08102864 0.2083243 0.23106112 0.051124234 0.20706558 -0.13281754 0.20779541 0.14797577
-0.13691542 -0.22582941 -0.19260724 0.038094852 0.067845546 0.1413098 0.08145083 -0.080135934
0.0036754669 0.19715995 -0.02445055 0.24637489 -0.16197148 0.09675043 0.21930875 -0.19069156
-0.23062761 0.22946508 -0.1572648 -0.033886995 -0.1809765 -0.1507543 0.24263676 -0.2341181
0.18357573 -0.09288474 0.15185703 0.21160261 -0.14199755 -0.11017675 -0.10102026 -0.2178511
-0.033393417 0.013556136 0.19643159 -0.23565124 -0.16303864 -0.1413893 -0.00931148 0.19240111
-0.15917721 -0.16320267 -0.18872713 -0.13693509 0.23017421 0.13508521 0.044307586 -0.01356486
-0.06112391 -0.19030507 0.22345336 0.079585224 -0.07488098 0.23234901 -0.14535245 -0.1235493
-0.13915202 0.22121353 -0.1055774 0.06067719 -0.03708787 -0.24047026 0.0392681 -0.019146305
00000000: ed1e 2d3e b23e e93d ebda 05be cc55 dc3b
00000010: 7501 1d3d b3d2 23be 86d9 363d 9be3 fbbd
00000020: 4a60 353e 301c a3bd cbb1 0f3e e45f debd
00000030: 9b95 14be 082d 46be dfdd 2d3e 99be 6b3e
00000040: 73c3 30bd 8ca6 1ebd ef20 493c 0770 0b3e
00000050: 2680 3f3e 56d0 303e 53db c93d ca13 83be
00000060: 3df4 80be 5044 9c3b 8d3b d8bd 5323 13be
00000070: d897 3fbe ba9e 7dbd 09ac 4abd 7bb6 093e
00000080: 7b80 3e3e 9d37 953d 06cf d2bd 234f 2abe
00000090: 2091 163e 3778 05be ae3a 70bc ed7c a13d
000000a0: b2ad 783e 228f 0dbd a0ae 50be 9114 763d
000000b0: c0a8 f63d 139f fc3c 48fc 1d3c def6 383d
000000c0: 0150 f1bb 7284 7f3e fa8c 143e 7c06 923d
000000d0: f6c0 083e 90cd 183e 417c a53d 59e8 a8bd
000000e0: cff2 babd 33b7 4e3d 6ff8 0abe 28d3 7f3e
000000f0: a16d 853d 88d7 8bbc 8f2e 5bbe f977 823e
00000100: 54d1 9fbc 3bd4 14be 1a6e a6bd 8fcf e9bd
00000110: 7a02 d5bd 237d 47be a32a 68be af16 b6bc
00000120: 40fc 743e 2d60 b8bd 5c40 15be 7135 e63d
00000130: 6109 e9bc 5473 45bd 8495 05be d6c9 3cbe
00000140: 8e97 083e 8efe 1bbe e2ce 3b3e 8479 283e
00000150: 80e2 62bd b3a0 013d 0439 f7bd 53d1 b4bc
00000160: 5911 093d 8a6b 72bb 3ae2 9abd 752e 1f3d
00000170: c730 56be 3338 343e f200 2abe 1c68 6bbe
00000180: 35f4 0ebe 610d 0bbe bfff 25be 4bca 39be
00000190: 3302 eebd e354 14be 789b 473e 0b74 7ebc
000001a0: 3667 913d 6264 483e 0b27 513e 26da 3f3e
000001b0: 401f 053e 5d08 81be 35b4 293e 987d 243e
000001c0: ebbc 0ebe bfee 7abe cd7c 1ebe 00a4 6f3e
000001d0: 5285 2b3e 94e4 08be 73c6 f63d e2c1 5d3d
000001e0: 8d04 7b3d cd3e 313e fa67 913c 556d 88be
000001f0: f03a 203e 1538 953c 8e3a 143e 86dc 083e
00000200: 10ec 423c 7947 c6bd 2667 f43c 0ba4 253b
00000210: 2065 8f3b 9be0 aabc fe5f 793e 2346 413e
00000220: 81de 31be 347d 07be 5679 1e3e 9660 dc3d
00000230: b830 0b3e 8371 ac3c b053 663e 5e4f e9bd
00000240: 6a32 fabd 7cc9 a1bd eaba 353e 846e 18be
00000250: 17bb 45be a945 ec3c bbae cdbc 64ca 003c
00000260: 31d1 d5bd 706c c9bc 4190 143e fe6f 55be
00000270: cd7d 693e 2362 193e 74dc e1bb 6222 6c3e
00000280: 2852 87bd 7b5b 143d df2d 6bbd aea7 313e
00000290: eefb 95bd b142 02be c24f a43d 247f 003e
000002a0: 2a1d df3d 2b8f a7bd 1748 e1bd f3be f53d
000002b0: 3c8a 55be b9c2 e5bc a6e4 68bd a777 0bbe
000002c0: 8287 07be 162f 33be 14cf 303e 423b 473d
000002d0: 480f 08be de19 c73d 6edc 7bbc b52e 61be
000002e0: 58f2 a5bd f752 553e 499b 6c3e a567 513d
000002f0: 0009 543e 5201 08be 52c8 543e f686 173e
00000300: 8e33 0cbe d33f 67be d53a 45be 5909 1c3d
00000310: 9bf2 8a3d 84b3 103e b1cf a63d 4f1e a4bd
00000320: 1ae0 703b 4ce4 493e 854c c8bc b349 7c3e
00000330: dadb 25be 1725 c63d 7992 603e a644 43be
00000340: a529 6cbe e5f8 6a3e 060a 21be 17cd 0abd
00000350: e751 39be 565f 1abe c575 783e a8bc 6fbe
00000360: 47fb 3b3e 5b3a bebd 6980 1b3e 5bae 583e
00000370: ce67 11be 59a4 e1bd b6e3 cebd 5c14 5fbe
00000380: 89c7 08bd 8e1a 5e3c 5d25 493e 8f4e 71be
00000390: 9af3 26be 5bc8 10be 2e8f 18bc cc04 453e
000003a0: 5aff 22be 9a1e 27be af41 41be b638 0cbe
000003b0: cab2 6b3e c753 0a3e df7b 353d 263f 5ebc
000003c0: 115d 7abd 55df 42be f5d0 643e 94fd a23d
000003d0: 335b 99bd e6ec 6d3e 46d7 14be 6a07 fdbd
000003e0: de7d 0ebe cd85 623e f738 d8bd a588 783d
000003f0: 73e9 17bd d63d 76be 96d7 203d b6d8 9cbc

transformer_encoder.layers.0.linear1.bias f4 [2048]
-0.13773564 0.18718635 -0.09807695 0.10254347 -0.13962056 0.15977895 -0.1733379 0.14361738
-0.08612869 0.11563741 0.19232062 0.08427158 -0.1288402 0.037182342 -0.17197546 -0.10844403
0.18994103 0.17557037 -0.035832524 -0.01657905 -0.1378154 0.21226804 -0.061121363 -0.20041138
-0.13384804 -0.10294933 0.0349519 -0.15038419 -0.17554499 0.0010457073 -0.09050607 -0.19105925
0.15473437 -0.101952225 0.1579806 -0.122904755 -0.15335837 0.110006265 0.1155628 0.14376836
0.035740923 -0.14554133 0.19357 -0.11420902 -0.123105265 -0.14984953 -0.0058110114 -0.2489666
-0.030502168 0.045450713 -0.16482708 0.046711963 -0.21368583 0.18863629 0.10420778 -0.20409396
-0.14910942 -0.1546838 -0.19171605 -0.0029363267 -0.046328124 -0.068524025 -0.13581894 -0.1827442
0.017235791 -0.19386157 0.16602537 0.071535975 0.23850967 -0.009781325 0.21388204 0.105559126
0.19695501 0.18423113 -0.22766043 0.015919799 0.10767976 -0.02414557 0.12670955 -0.14658551
0.14697927 -0.1690902 -0.16638507 0.23803537 0.16150333 -0.19349484 -0.10434157 -0.0208304
0.08818097 -0.05158977 -0.14072807 -0.034765612 0.07961782 0.14289336 0.0012153249 0.024616005
-0.051727314 0.017519912 0.19044307 0.23823754 0.1514502 0.14099969 0.042986933 0.24226288
-0.1872764 0.06122831 -0.14405265 -0.062224288 0.12847704 0.06044435 0.14639567 -0.060637724
-0.25466517 -0.08788975 0.20602296 0.08991098 0.12655261 -0.054898575 -0.12690549 -0.19455838
-0.06250017 0.22000043 -0.009564835 0.061727464 0.013517558 -0.12539043 0.18550809 0.06641114
0.21871434 0.103283495 0.22084397 -0.13815962 0.085071206 -0.1946828 0.15821193 0.22617656
0.19541769 -0.12529217 -0.06353349 -0.1358346 -0.17684203 0.17811912 0.057977352 -0.18665993
-0.122520715 -0.024047744 -0.027719945 0.013708378 0.24298827 -0.09982346 -0.21355014 -0.12592824
0.011051828 0.21304202 -0.10070381 0.108353704 -0.13762763 0.03620007 0.05377808 -0.14564979
-0.19784525 -0.035466406 0.19823326 -0.069955274 -0.25115606 0.085550316 0.039225616 -0.23166715
0.2167208 -0.029403754 -0.24214731 -0.2287905 0.07858519 -0.14964311 0.041428138 0.029126944
0.025781171 -0.21421641 0.05011623 0.0033734753 0.121669345 -0.044069503 0.008733897 -0.06460778
-0.16808894 -0.16525893 -0.026783016 -0.031890836 0.1443137 -0.14805429 -0.022484899 -0.055221535
-0.082424 -0.18612553 -0.0040378342 0.03140055 -0.2120752 0.051157333 0.13556191 0.19652684
0.24238342 -0.16839588 -0.16626506 -0.12105915 -0.0046098735 -0.1250856 0.04356316 -0.22706462
-0.23591653 0.056437116 -0.21163483 -0.0907239 -0.078745015 -0.22966796 0.17002405 0.08914202
0.11294226 0.14081325 -0.1322512 -0.23256001 -0.16234013 -0.060469735 -0.0940461 -0.21267132
0.18845592 -0.04571853 0.11348473 -0.19707645 -0.21306925 0.246213 0.20888959 0.23978572
-0.21541531 0.22202519 0.06076069 0.21860822 0.0071798605 0.10733188 -0.103564724 0.0746374
0.22482818 0.037481096 0.0094475085 0.06644685 0.04652573 0.19644658 0.22448759 -0.09181352
-0.10300619 0.17860605 0.22725262 -0.07415299 0.02992046 -0.058612946 0.02424059 0.09782309
00000000: 920a 0dbe c7ad 3f3e 91dc c8bd 5002 d23d
00000010: b1f8 0ebe 189d 233e 7e7f 31be 6f10 133e
00000020: 3d64 b0bd 4ed3 ec3d b2ef 443e 9496 ac3d
00000030: afee 03be 834c 183d 561a 30be e717 debd
00000040: e77f 423e b8c8 333e 20c5 12bd cad0 87bc
00000050: 7b1f 0dbe cb5c 593e 655a 7abd a438 4dbe
00000060: 760f 09be 19d7 d2bd b929 0f3d 50fe 19be
00000070: 11c2 33be 1d10 893a 3f5b b9bd 09a5 43be
00000080: b072 1e3e 54cc d0bd abc5 213e 7db5 fbbd
00000090: fa09 1dbe f74a e13d 30ac ec3d 0338 133e
000000a0: 1365 123d c908 15be 3737 463e 6be6 e9bd
000000b0: 9d1e fcbd 2872 19be 4c6a bebb 1af1 7ebe
000000c0: afdf f9bc 872a 3a3d 6ec8 28be 0b55 3f3d
000000d0: 75d0 5abe df29 413e e36a d53d 02fe 50be
000000e0: 24b0 18be 6e65 1ebe 3651 44be 636f 40bb
000000f0: 8fc2 3dbd 5356 8cbd 1f14 0bbe 4c21 3bbe
00000100: 1332 8d3c a683 46be 8e02 2a3e 7481 923d
00000110: e13b 743e da41 20bc e503 5b3e 622f d83d
00000120: 93ae 493e 16a7 3c3e d11f 69be 3d6a 823c
00000130: 3587 dc3d eecc c5bc 26c0 013e 831a 16be
00000140: bc81 163e fb25 2dbe d960 2abe 8bbf 733e
00000150: 2161 253e 8323 46be 08b1 d5bd 84a4 aabc
00000160: 3998 b43d cb4f 53bd 051b 10be 6366 0ebd
00000170: ab0e a33d a352 123e 894b 9f3a 81a7 c93c
00000180: 05e0 53bd eb85 8f3c 8203 433e 8bf4 733e
00000190: c315 1b3e 3962 103e 1113 303d c313 783e
000001a0: 62c5 3fbe 89ca 7a3d 8a82 13be e5de 7ebd
000001b0: 7c8f 033e 7f94 773d bfe8 153e 435f 78bd
000001c0: 7963 82be 8bff b3bd aff7 523e 3f23 b83d
000001d0: 0297 013e 54dd 60bd 83f3 01be 503a 47be
000001e0: 1700 80bd cb47 613e d3b5 1cbc f0d5 7c3d
000001f0: bf78 5d3c 5966 00be d5f5 3d3e 9002 883d
00000200: a7f6 5f3e 4c86 d33d ec24 623e b779 0dbe
00000210: d039 ae3d ee5a 47be 4f02 223e d49a 673e
00000220: 931b 483e 974c 00be d91d 82bd 3a18 0bbe
00000230: 1416 35be dc64 363e a979 6d3d c823 3fbe
00000240: 24ec fabd c6ff c4bc f014 e3bc 1b99 603c
00000250: ebd1 783e 3e70 ccbd e3ac 5abe 55f3 00be
00000260: ba12 353c b027 5a3e cd3d cebd 8ce8 dd3d
00000270: 42ee 0cbe 8646 143d 6746 5c3d 3825 15be
00000280: f297 4abe 3945 11bd a9fd 4a3e b644 8fbd
00000290: 8797 80be 0135 af3d 0aab 203d 273a 6dbe
000002a0: 0fec 5d3e 24e0 f0bc 77f5 77be 0f48 6abe
000002b0: 46f1 a03d 0b3c 19be 8db0 293d a19b ee3c
000002c0: 0933 d33c 8c5b 5bbe ad46 4d3d 8615 5d3b
000002d0: c72d f93d 3982 34bd 9e18 0f3c 1551 84bd
000002e0: 821f 2cbe a339 29be 0e68 dbbc f79f 02bd
000002f0: f8c6 133e 8b9b 17be 4032 b8bc fa2f 62bd
00000300: eacd a8bd b197 3ebe cf4f 84bb dd9d 003d
00000310: 3e2a 59be 5a8a 513d bed0 0a3e 553e 493e
00000320: 5c33 783e f86f 2cbe 6341 2abe dced f7bd
00000330: 6c0e 97bb 7116 00be 496f 323d a183 68be
00000340: 1a94 71be 9b2a 673d cdb6 58be 74cd b9bd
00000350: 1145 a1bd 142e 6bbe c91a 2e3e 1790 b63d
00000360: 464e e73d 5931 103e dc6c 07be 3624 6ebe
00000370: 7e3c 26be 1daf 77bd 3e9b c0bd 83c6 59be
00000380: 97fa 403e 5a43 3bbd af6a e83d 69ce 49be
00000390: d32e 5abe 431f 7c3e 27e7 553e 638a 753e
000003a0: d595 5cbe 925a 633e 34e0 783d d5da 5f3e
000003b0: 0945 eb3b d1d0 db3d be19 d4bd 7edb 983d
000003c0: 5c39 663e c785 193d b9c9 1a3c 4915 883d
000003d0: c491 3e3d 4b29 493e 13e0 653e ba08 bcbd
000003e0: e9f4 d2bd 81e4 363e e9b4 683e 86dd 97bd
000003f0: c11b f53c 2114 70bd 3494 c63c 7957 c83d

transformer_encoder.layers.0.linear2.weight f4 [16, 2048]
-0.0039825416 -0.0052289153 0.011061849 -0.055022266 -0.011639424 -0.006582558 0.019373817 -0.006732546
0.0013515876 -0.013816001 0.017502015 0.006790324 0.015728012 -0.008230737 0.006148469 0.006756588
-0.011656827 -0.014665398 0.017695839 0.008105829 0.014655178 -0.020860892 -0.0063111736 0.009664554
0.010651607 -0.0036293012 0.010894395 0.0040951413 0.014664386 0.011835441 0.0023244924 0.0022085803
0.02196302 0.0013959426 -0.026736567 -0.016414134 -0.021594794 -0.012451734 -0.009614621 0.0051943664
-0.019302974 0.0032395571 0.02282536 0.0036725895 0.0022977665 0.013226045 -0.020082822 0.017242637
-0.018953402 0.020638213 -0.007839802 -0.017069947 0.0071943104 -0.0076037454 0.0268372 -0.017365035
0.00982052 -0.015260026 0.019960253 0.0029817745 -0.0044549345 0.0021841961 -0.020818632 0.015685981
0.032293875 -0.015251172 0.0066923047 -0.024120701 0.011456802 0.021625023 0.042468358 -0.008419897
-1.1145967e-05 0.013731067 0.029098077 0.012400337 -0.01886156 -0.028240224 0.031063471 0.034074146
-0.0071487087 0.009549382 -0.008991916 -0.007882228 -0.004002181 -0.016759984 0.0048380313 -0.027718116
0.034826037 -0.0040488257 0.002764848 0.0293316 0.01890122 -0.013442908 -0.0063179904 0.004647893
-0.0054356055 -0.014360847 0.012149895 0.021041198 0.008423472 -0.013081472 -0.02721906 0.016813228
-0.009803843 -0.021315625 0.012461053 -0.001747942 0.023860468 0.02400898 0.023319788 0.0007804061
0.0039648023 -0.0069889817 0.020236658 0.0035992428 -0.012550223 0.0027471343 -0.0043833973 -0.0011007242
0.027389681 -0.019575445 0.026029596 0.004681491 0.036091007 -0.000876006 0.019177485 0.016770987
0.0059559112 0.006976853 -0.022787718 0.01366718 0.013824665 0.021232918 -0.022577327 0.008321686
-0.0065682656 -0.0067594997 0.037122123 0.009975892 -0.01796644 0.0194742 0.0064518657 -0.011059962
-0.010217803 0.024798153 -0.029641898 -0.007234543 0.0119538205 -0.0076112384 -0.037919126 0.008995352
-0.0074544954 -0.020675318 0.025172962 0.009266029 0.015451183 0.0147859985 -0.008128852 0.038451616
-0.015844712 -0.013525039 0.00547836 0.002670609 0.0065437863 -0.021234732 -0.0099639585 -0.0006092455
0.013597488 -0.025290063 0.015970642 -0.01576029 -0.020006713 0.038821895 -0.019549144 -0.0049947435
0.012364456 -0.018728685 -0.0071974327 -0.0019544559 -0.022914682 0.017442908 0.006152095 -0.011946768
0.004093463 -0.00073049124 -0.014302656 0.023913164 -0.012539014 0.025467945 0.017076762 0.015581513
0.007138995 0.0034379284 -0.002966527 0.0039047138 0.016796451 0.009601435 -0.009430961 -0.010464806
-0.003142772 0.02051125 0.015148567 0.008514329 0.022581983 -0.004063096 0.018956942 0.00057874137
-0.017398812 0.0062748957 0.0027322634 -0.011644904 -0.024106946 0.010238132 0.026001586 0.0049244505
-0.024305558 -0.010606949 0.019962093 -0.014636804 0.0045328327 0.016973672 0.010834441 -0.00490297
0.0011021128 0.019728476 -0.0046791146 -0.01889528 0.020941583 -0.019226363 0.016810166 -0.0026183825
0.011512164 0.011166743 0.015160426 0.0020575805 -0.020613043 0.015879955 -0.022351 -0.006225189
0.012318911 0.009011623 0.026063798 -0.022353731 0.01327209 0.017355472 -0.0048317458 -0.020974146
-0.0027264543 -0.006450277 -0.005391549 0.015537574 0.008142633 -0.010077891 0.011764797 -0.02648414
00000000: fb7f 82bb 5257 abbb c23c 353c 075f 61bd
00000010: 48b3 3ebc 80b2 d7bb d7b5 9e3c b09c dcbb
00000020: c127 b13a 825c 62bc 6360 8f3c 5e81 de3b
00000030: 08d8 803c 37da 06bc 1979 c93b 5e66 dd3b
00000040: 47fc 3ebc 2347 70bc ddf6 903c 50ce 043c
00000050: 461c 703c 76e4 aabc f6cd cebb 1458 1e3c
00000060: 1484 2e3c 92d9 6dbb 687e 323c 8930 863b
00000070: e542 703c 70e9 413c 8356 183b d4bd 103b
00000080: cbeb b33c 10f8 b63a a506 dbbc ef76 86bc
00000090: 91e7 b0bc 5c02 4cbc a586 1dbc 8135 aa3b
000000a0: 4521 9ebc c04e 543b 40fc ba3c d4af 703b
000000b0: 2096 163b 0eb2 583c bb84 a4bc 6e40 8d3c
000000c0: 2a44 9bbc 7811 a93c 8372 00bc 46d6 8bbc
000000d0: 40be eb3b d728 f9bb b0d9 db3c 1e41 8ebc
000000e0: 3fe6 203c 3005 7abc af83 a33c e069 433b
000000f0: b3fa 91bb bb24 0f3b d68b aabc e37f 803c
00000100: 9546 043d 0de0 79bc 1f4b db3b c798 c5bc
00000110: 4fb5 3b3c f626 b13c 4df3 2d3d 9cf3 09bc
00000120: 90ff 3ab7 45f8 603c 175f ee3c c82a 4b3c
00000130: 8f83 9abc 0b58 e7bc d278 fe3c 5591 0b3d
00000140: b73f eabb 0375 1c3c d452 13bc 7624 01bc
00000150: ba24 83bb 3c4c 89bc 5988 9e3b 1a11 e3bc
00000160: bfa5 0e3d 03ac 84bb 7432 353b d348 f03c
00000170: bbd6 9a3c a53f 5cbc 2507 cfbb 5a4d 983b
00000180: 2a1d b2bb c249 6bbc 5a10 473c 975e ac3c
00000190: 9a02 0a3c ac53 56bc 82fa debc e5bb 893c
000001a0: 4ca0 20bc 1b9e aebc 7229 4c3c 331b e5ba
000001b0: 0777 c33c 7bae c43c 2409 bf3c 2b94 4c3a
000001c0: 2ceb 813b d403 e5bb 59c7 a53c 46e1 6b3b
000001d0: 739f 4dbc 4409 343b 9aa2 8fbb 2d46 90ba
000001e0: 5360 e03c af5c a0bc 053c d53c 3167 993b
000001f0: 2ad4 133d c4a3 65ba 1a1a 9d3c 4f63 893c
00000200: ce29 c33b 169e e43b 4fad babc 4fec 5f3c
00000210: d980 623c a8f0 ad3c 16f4 b8bc ae57 083c
00000220: 9b3a d7bb cb7e ddbb 5e0d 183d ec71 233c
00000230: 5b2e 93bc 5c88 9f3c 2c6a d33b d834 35bc
00000240: 9268 27bc 7f25 cb3c 91d3 f2bc bf0f edbb
00000250: f5d9 433c b267 f9bb 1651 1bbd 3e61 133c
00000260: d744 f4bb 495f a9bc 8737 ce3c 8bd0 173c
00000270: f526 7d3c f940 723c e02e 05bc 717f 1d3d
00000280: c5cc 81bc 2098 5dbc d183 b33b 6205 2f3b
00000290: 426d d63b 76f4 adbc df3f 23bc c6b5 1fba
000002a0: 00c8 5e3c 1b2d cfbc ddd4 823c b91b 81bc
000002b0: 1ee5 a3bc b503 1f3d 8725 a0bc f2aa a3bb
000002c0: 4a94 4a3c e66c 99bc 71d8 ebbb 5416 00bb
000002d0: 92b7 bbbc 6ee4 8e3c 8397 c93b 60bc 43bc
000002e0: 7522 863b 707e 3fba b055 6abc 8ae5 c33c
000002f0: 7070 4dbc 27a2 d03c 91e4 8b3c 9a49 7f3c
00000300: 3bee e93b de4e 613b 106a 42bb 3ae6 7f3b
00000310: b698 893c 564f 1d3c 5184 1abc 9474 2bbc
00000320: f7f6 4dbb 3507 a83c b231 783c af7f 0b3c
00000330: dafd b83c b823 85bb 974b 9b3c adb6 173a
00000340: f487 8ebc a49d cd3b c60f 333b 44ca 3ebc
00000350: ee7b c5bc d7bd 273c 4701 d53c 495d a13b
00000360: 731c c7bc c5c8 2dbc 8b87 a33c 35cf 6fbc
00000370: 2888 943b 5f0c 8b3c f082 313c 18a9 a0bb
00000380: c574 903a 9d9d a13c 4253 99bb 46ca 9abc
00000390: af8d ab3c 9b80 9dbc 79b5 893c 2b99 2bbb
000003a0: 849d 3c3c b7f4 363c 6f63 783c 79d8 063b
000003b0: afdc a8bc ae16 823c 7219 b7bc acfc cbbb
000003c0: 42d5 493c 7da5 133c bf83 d53c 2c1f b7bc
000003d0: 2e73 593c 102d 8e3c 9f53 9ebb f9d1 abbc
000003e0: 50ae 32bb d85c d3bb 97ab b0bb 4f91 7e3c
000003f0: ae68 053c bd1d 25bc 23c1 403c 44f5 d8bc

transformer_encoder.layers.0.linear2.bias f4 [16]
-0.020507168 -0.0048053153 0.007542329 0.006846567 -0.0037433084 0.010048337 0.012156778 0.011355447
-0.009591536 -0.027294664 0.012616317 0.021586662 0.002610529 -0.0059266025 0.014687237 -0.012988386
00000000: a6fe a7bc e875 9dbb a425 f73b 2b59 e03b
00000010: 4b52 75bb c8a1 243c 392d 473c 320c 3a3c
00000020: d125 1dbc 0f99 dfbc abb4 4e3c 83d6 b03c
00000030: 6915 2b3b f233 c2bb bda2 703c 3dcd 54bc

transformer_encoder.layers.0.norm1.weight f4 [16]
1.0012301 1.0314746 1.0262378 1.0029572 0.98865175 0.99362326 1.0025448 1.0022379
1.016362 0.97649616 0.99358726 1.0110133 1.0063475 0.98489934 1.0194904 1.016273
00000000: 4f28 803f 5c07 843f c35b 833f e760 803f
00000010: 4818 7d3f 185e 7e3f 6353 803f 5549 803f
00000020: 2618 823f a7fb 793f bc5b 7e3f e268 813f
00000030: ffcf 803f 5d22 7c3f a97e 823f 3c15 823f

transformer_encoder.layers.0.norm1.bias f4 [16]
0.001205449 0.0012446737 0.0073057967 -0.003952368 0.011296971 0.008219657 -0.009674975 0.001497805
0.008525166 -0.02260396 0.0051555997 0.0041728574 0.0043466957 -0.014391381 0.010576471 -0.004288958
00000000: 2800 9e3a 5224 a33a 7765 ef3b de82 81bb
00000010: ee16 393c bdab 063c c983 1ebc ff51 c43a
00000020: 23ad 0b3c f12b b9bc 4ef0 a83b 77bc 883b
00000030: ba6e 8e3b d4c9 6bbc ef48 2d3c 638a 8cbb

transformer_encoder.layers.0.norm2.weight f4 [16]
1.0017524 1.0240995 0.9998109 0.9950415 0.9836422 0.9944035 1.0023361 1.0175351
0.9864603 1.0024562 0.99736667 1.0145621 1.0065446 0.9937982 1.0034859 1.0064694
00000000: 6c39 803f b115 833f 9bf3 7f3f 0abb 7e3f
00000010: facf 7b3f 3a91 7e3f 8d4c 803f 973e 823f
00000020: aa88 7c3f 7c50 803f 6c53 7f3f 2cdd 813f
00000030: 74d6 803f 8f69 7e3f 3a72 803f fdd3 803f

transformer_encoder.layers.0.norm2.bias f4 [16]
-0.0017199013 0.002916139 0.0070210276 -0.0074718553 0.00097362127 0.006866539 -0.010671587 0.0032603196
0.0071881264 -0.0041510058 0.00065243465 0.010186394 -0.0019445758 -0.012687312 0.008696696 0.00013793312
00000000: 506e e1ba b21c 3f3b a610 e63b 77d6 f4bb
00000010: 9e3a 7f3a b400 e13b e1d7 2ebc 16ab 553b
00000020: 608a eb3b 2905 88bb 2608 2b3a d5e4 263c
00000030: 23e1 feba 72de 4fbc 967c 0e3c 24a2 1039

transformer_encoder.layers.1.self_attn.in_proj_weight f4 [48, 16]
0.029510261 -0.08198126 0.005239468 -0.2891882 -0.2849812 0.10933717 -0.23277079 -0.18844858
-0.3070321 -0.22448574 0.2988389 -0.20876025 0.22206827 0.0438682 0.18255444 -0.029905273
-0.034976862 0.007836935 -0.10323674 -0.027168518 0.2945757 -0.11210941 0.18881306 -0.25731698
-0.20567834 -0.084807485 0.008255491 -0.08303559 -0.13478093 -0.13035832 0.26828977 0.041694857
-0.04340519 -0.11382895 -0.03185522 -0.22067611 -0.03979445 -0.257171 -0.11923807 -0.24937442
0.12418614 -0.30607525 0.22416061 0.31284702 0.1910517 -0.100418426 0.09955141 -0.07274662
0.11353875 -0.038383167 0.082570314 0.2880124 -0.11071605 0.07455784 -0.02128579 0.06078143
0.1499701 -0.3120464 0.17162348 0.1263753 -0.12342093 -0.1320539 0.030441048 0.0042427033
0.040517773 0.23117746 -0.08010649 -0.091651 -0.30903113 -0.05083936 -0.27585146 0.35534889
0.20572695 0.0924791 -0.17564838 -0.071557 0.08873556 -0.04229155 -0.20720157 -0.15408294
0.2063738 0.06868807 0.2401896 -0.068443224 -0.16430765 -0.27776474 -0.07826509 0.17878634
0.1768179 -0.09881251 0.31785408 -0.03434892 -0.031060029 0.18619053 0.21892959 0.22046895
-0.2717302 0.1668844 0.26787797 0.22655112 -0.064781666 -0.085924 -0.14767094 0.30115598
-0.13490169 0.05703075 0.118391946 0.26307765 0.11253568 -0.14823344 -0.24269897 0.14338155
-0.10890013 -0.11018003 0.14054887 -0.030446747 0.27594134 0.1718375 -0.1324951 0.01565168
-0.122124545 -0.23231238 0.15251344 0.2017012 -0.07997848 0.08017756 0.01693714 0.22096884
0.31290665 0.24313484 -0.14484435 -0.11419412 0.1478502 -0.222874 0.16189514 -0.16771324
-0.22394897 0.12794015 -0.21008173 -0.008402256 -0.17817886 0.107674316 0.29951328 -0.16081089
-0.011183212 0.18997967 0.10847036 -0.09976334 -0.2798256 0.14209443 -0.17931665 -0.115143105
-0.25142485 0.15000336 0.057268977 -0.2547206 -0.23165214 -0.2690479 0.20756364 -0.24700063
0.24109459 -0.2859473 -0.052459043 0.291875 0.037195373 -0.053613428 0.112511046 0.16161364
0.2167736 -0.14778714 0.16233759 -0.13991155 -0.1113835 -0.109442614 0.28214553 -0.033756673
0.24605289 0.10454187 -0.014613331 -0.0018964645 0.23551667 -0.1859503 -0.027634712 -0.03392163
0.13859387 0.09074162 0.10307664 -0.10002868 -0.12070253 0.13038784 -0.2569613 0.11461792
0.25426325 0.25051713 -0.31386682 0.033184454 0.18643674 -0.13659056 0.1862037 0.100111224
0.19430183 -0.17111784 0.30346087 -0.022137415 0.09093686 -0.23943208 0.061100364 -0.062209062
0.11006075 -0.16022824 0.17011292 0.0949843 -0.26251 0.21538769 0.024028936 -0.06513066
0.13336538 -0.12010094 -0.15537238 0.084780924 0.09141414 -0.23846443 0.19257587 -0.059392843
0.10318623 0.18080159 -0.28887764 -0.16386963 0.13394134 0.0038265672 0.02644374 -0.17670566
-0.20544353 0.061191313 -0.10469958 0.2420354 -0.29913837 -0.16292098 0.1755639 0.15436506
-0.111752436 -0.22573549 0.23430134 0.0038884075 -0.09722581 -0.17330916 -0.2527491 0.13546935
0.26896167 -0.0446912 -0.08410451 -0.09213962 -0.08905674 0.124779746 0.31442514 -0.0014156927
00000000: 81bf f13c cae5 a7bd d8af ab3b 7a10 94be
00000010: 0ee9 91be 2bec df3d 775b 6ebe aaf8 40be
00000020: 5033 9dbe 97df 65be 6a01 993e 3fc5 55be
00000030: dd65 633e 24af 333d 8def 3a3e e7fb f4bc
00000040: e643 0fbd 7d66 003c c96d d3bd 8390 debc
00000050: a0d2 963e 9e99 e5bd 3658 413e 0dbf 83be
00000060: 589d 52be 8caf adbd 0a42 073c 900e aabd
00000070: 0304 0abe a77c 05be 475d 893e 3ac8 2a3d
00000080: a4c9 31bd 271f e9bd 9f7a 02bd ebf8 61be
00000090: 81ff 22bd ebab 83be 1733 f4bd 025c 7fbe
000000a0: 4e55 fe3d e5b5 9cbe 5c8a 653e 7c2d a03e
000000b0: 0fa3 433e 2da8 cdbd 9ce1 cb3d 2efc 94bd
000000c0: 0187 e83d ab37 1dbd a01a a93d 5c76 933e
000000d0: 19bf e2bd c8b1 983d 895f aebc f3f5 783d
000000e0: c391 193e 8cc4 9fbe 11be 2f3e 8768 013e
000000f0: 1dc4 fcbd 2339 07be 815f f93c 6006 8b3b
00000100: f7f5 253d c9b9 6c3e df0e a4bd 85b3 bbbd
00000110: 5439 9ebe ef3c 50bd 673c 8dbe 4af0 b53e
00000120: 16aa 523e af65 bd3d 2bdd 33be 7a8c 92bd
00000130: fdba b53d e839 2dbd a62c 54be ebc7 1dbe
00000140: a753 533e 55ac 8c3d 43f4 753e f62b 8cbd
00000150: 4440 28be 2e37 8ebe 7349 a0bd c413 373e
00000160: c00f 353e 375e cabd c5bd a23e 74b1 0cbd
00000170: 9a71 febc bba8 3e3e 142f 603e 9dc2 613e
00000180: 3920 8bbe bfe3 2a3e 4d27 893e 04fd 673e
00000190: 40ac 84bd ecf8 afbd 0d37 17be 1e31 9a3e
000001a0: ab23 0abe 1399 693d 7a77 f23d 1db2 863e
000001b0: 1b79 e63d 82ca 17be 1486 78be 9dd2 123e
000001c0: 0807 dfbd 11a6 e1bd 0bec 0f3e 756b f9bc
000001d0: 2f48 8d3e 2bf6 2f3e ccac 07be f437 803c
000001e0: 6f1c fabd 4ce3 6dbe 7c2c 1c3e c28a 4e3e
000001f0: c2cb a3bd 2234 a43d c2bf 8a3c a845 623e
00000200: 4d35 a03e 57f8 783e 1452 14be 9bde e9bd
00000210: 0b66 173e 1539 64be d7c7 253e 05bd 2bbe
00000220: e152 65be be02 033e aa1f 57be 9ea9 09bc
00000230: 8574 36be 5a84 dc3d ce59 993e 9cab 24be
00000240: ca39 37bc 088a 423e b525 de3d b950 ccbd
00000250: 4d45 8fbe 3481 113e c99e 37be 26d0 ebbd
00000260: c2ba 80be 7b9a 193e e092 6a3d bd6a 82be
00000270: 3836 6dbe a5c0 89be 908b 543e bced 7cbe
00000280: 80e1 763e af67 92be 4bdf 56bd a470 953e
00000290: 2d5a 183d c199 5bbd 316c e63d 0c7e 253e
000002a0: e6f9 5d3e 8355 17be d33b 263e f944 0fbe
000002b0: 081d e4bd 7323 e0bd 6175 903e 7044 0abd
000002c0: 4af5 7b3e 0c1a d63d c16c 6fbc ca92 f8ba
000002d0: 482b 713e c169 3ebe 3162 e2bc 68f1 0abd
000002e0: 8deb 0d3e bed6 b93d d819 d33d d6db ccbd
000002f0: e332 f7bd 6484 053e 6e90 83be cdbc ea3d
00000300: cb2e 823e c843 803e 27b3 a0be 6cec 073d
00000310: 46e9 3e3e 65de 0bbe 2fac 3e3e 1d07 cd3d
00000320: 0ff7 463e 8439 2fbe 395f 9b3e 8659 b5bc
00000330: 1b3d ba3d af2d 75be 6044 7a3d eece 7ebd
00000340: 8867 e13d df12 24be 1532 2e3e 2187 c23d
00000350: b667 86be 978e 5c3e 55d8 c43c 3963 85bd
00000360: ef90 083e 7bf7 f5bd f019 1fbe 9fa1 ad3d
00000370: 5637 bb3d 0530 74be 9c32 453e e945 73bd
00000380: 4d53 d33d 0d24 393e c5e7 93be 71cd 27be
00000390: eb27 093e 25c7 7a3b 8ba0 d83c 54f2 34be
000003a0: ca5f 52be bea3 7a3d bc6c d6bd 21d8 773e
000003b0: aa28 99be c2d4 26be 06c7 333e e011 1e3e
000003c0: 76de e4bd 3427 67be b1ec 6f3e a7d4 7e3b
000003d0: 531e c7bd f577 31be 5468 81be 7ab8 0a3e
000003e0: 58b5 893e 1f0e 37bd fc3e acbd b2b3 bcbd
000003f0: 6163 b6bd 868c ff3d 55fc a03e c48e b9ba

transformer_encoder.layers.1.self_attn.in_proj_bias f4 [48]
-0.0006411064 -0.009687849 -0.008557603 -0.0065998877 -0.0128195565 -0.008476517 0.012539693 0.0023887556
-0.021391707 -0.0024049457 0.005436469 0.0045369756 0.0020491574 0.0038179315 0.017613573 -0.012896861
1.4655768e-05 -1.3993649e-05 7.480031e-05 -1.3507129e-06 -4.135317e-06 3.6824767e-06 2.5055784e-05 5.8425438e-05
-1.7740529e-05 -2.815463e-06 -7.546001e-06 -1.30281205e-05 -2.0155596e-05 3.9904276e-05 9.8481205e-06 2.3892993e-05
0.0014845213 -0.0027364695 0.0018959745 0.0058776527 0.016738895 -0.0008195331 0.01148378 0.003914136
-0.0028716736 0.0042066313 0.00878796 -0.0018568432 -0.013537937 0.009747252 -0.013731284 0.0054317685
00000000: ec0f 28ba c9b9 1ebc 3035 0cbc df43 d8bb
00000010: 1e09 52bc 17e1 0abc 4973 4d3c ab8c 1c3b
00000020: a93d afbc 4b9c 1dbb 6824 b23b e9aa 943b
00000030: 284b 063b 4336 7a3b 574a 903c 5b4d 53bc
00000040: 0be2 7537 44c6 6ab7 1cde 9c38 244a b5b5
00000050: 1ac2 8ab6 7820 7736 e32e d237 d60d 7538
00000060: 7fd1 94b7 49f1 3cb6 a833 fdb6 5a93 5ab7
00000070: d013 a9b7 e45e 2738 5b39 2537 d06d c837
00000080: 4594 c23a 5756 33bb 5982 f83a 5399 c03b
00000090: 0220 893c efd5 56ba 7726 3c3c 2742 803b
000000a0: b032 3cbb c8d7 893b 60fb 0f3c 5261 f3ba
000000b0: 39ce 5dbc f0b2 1f3c 2ef9 60bc fafc b13b

transformer_encoder.layers.1.self_attn.out_proj.weight f4 [16, 16]
-0.07722643 -0.009737494 0.018811775 0.20713794 -0.17192924 0.03818327 -0.03254424 -0.19034837
0.09022537 -0.122573115 -0.24426606 0.14539036 0.15378235 -0.013148528 0.16353856 -0.019486034
0.15055504 -0.24375162 0.059714105 0.2375797 -0.095000036 0.22240964 -0.08669933 0.016292393
-0.18165037 0.22148025 -0.09934008 0.02543011 0.23453902 0.20832177 0.14263436 0.20278452
0.101688005 0.068799704 -0.07621321 0.12724227 0.21685047 0.123734474 -0.20492963 0.058125906
-0.07173609 0.20491563 -0.21231247 0.20969978 0.049700413 -0.081654795 0.16997568 0.1473039
0.20481859 0.09085586 -0.16597773 -0.12418996 0.02372966 -0.15098423 0.048289012 -0.23415893
0.1235824 0.2256022 -0.14308207 -0.11550688 -0.11458506 -0.13839984 0.23993386 0.21379708
0.22563533 0.003546097 0.09801383 0.043821868 -0.09865197 0.19478203 0.17468122 0.018950852
0.20459768 -0.18668339 0.18755047 -0.0674655 -0.19849804 0.15743288 0.016296497 0.1108032
-0.22085163 -0.21796174 0.1958703 0.19500487 0.19527142 -0.24342652 0.077807456 -0.031425253
-0.19698986 0.13439861 -0.0001802549 -0.18636085 0.073803335 0.15373088 0.2439206 0.20790431
0.18997791 0.07160483 0.22121738 -0.13320042 -0.099173345 -0.095190376 -0.059368506 -0.011656869
-0.15429415 -0.13494718 -0.16554299 0.07605219 0.25331417 -0.17280889 0.21409002 -0.16873215
-0.02943734 -0.21598995 0.13833737 0.24396878 -0.21363428 0.10541499 -0.031112475 0.19322956
-0.13668393 0.010523645 -0.061454467 -0.18441695 0.21370035 -0.21443087 0.25520828 0.11825147
0.20201737 -0.0024532147 -0.07457052 -0.027227152 -0.18318892 -0.23997438 -0.009361301 0.11769179
0.18733229 -0.07824788 0.14516406 -0.0029678156 -0.25664225 -0.21402355 0.07825717 -0.1954601
0.21876466 0.0048779584 -0.07967206 -0.18165809 0.003563533 0.16003548 -0.18524173 -0.051053036
-0.049678996 -0.12341513 0.0852151 0.22688867 -0.032757223 -0.099326245 0.08804909 0.07130918
0.14046025 0.11764064 -0.017425638 -0.23847379 -0.10835091 0.20797662 0.2188859 -0.20298654
0.121714614 0.19872214 0.085781954 0.23769999 0.17390788 -0.06494374 -0.25945032 -0.038181227
0.24636894 0.03344529 -0.038922265 0.21920152 -0.06979513 0.25226405 0.21864663 -0.12806939
-0.13627288 -0.081796564 0.2074085 0.0674268 0.009855995 0.09413726 -0.16446154 0.12920372
-0.19591302 0.2174242 0.022427652 0.15272735 0.03220491 -0.24234487 0.16109276 -0.1734284
0.19129527 -0.11012133 -0.22133335 0.14232033 -0.17311095 0.14481804 0.20163485 -0.09390018
0.058976278 -0.059491392 -0.1274991 -0.14027375 -0.1902728 0.19078651 -0.17562552 0.04189201
-0.068756506 0.118468285 0.22440001 0.21554105 0.21587677 -0.080231585 -0.017319242 0.027599761
0.16494939 -0.12078582 0.24326107 0.010176999 0.2476044 -0.14268142 0.2128157 -0.051170085
-0.1094548 -0.123539604 0.2242896 0.17239451 -0.12183306 0.13443755 0.06446117 0.19784869
-0.084728435 0.065841235 0.044948075 -0.085924566 0.011649439 0.14038587 0.11046987 -0.2040949
0.23313531 0.20048553 -0.23089829 0.0070854723 0.010392409 -0.23585479 -0.048433397 -0.039116345
00000000: e428 9ebd 038a 1fbc 271b 9a3c f81b 543e
00000010: 380e 30be 0f66 1c3d 1c4d 05bd afea 42be
00000020: 14c8 b83d 9d07 fbbd e220 7abe 36e1 143e
00000030: 1f79 1d3e ec6c 57bc a776 273e 2da1 9fbc
00000040: 1a2b 1a3e 069a 79be c796 743d 1848 733e
00000050: 618f c2bd 5abf 633e 6b8f b1bd a077 853c
00000060: 8e02 3abe b8cb 623e d072 cbbd ce52 d03c
00000070: ff2a 703e 4d52 553e be0e 123e bfa6 4f3e
00000080: cd41 d03d dce6 8c3d ac15 9cbd cc4b 023e
00000090: 0d0e 5e3e 8068 fd3d 13d9 51be 6e15 6e3d
000000a0: 5fea 92bd 67d5 513e 7168 59be 8abb 563e
000000b0: a992 4b3d a13a a7bd 1b0e 2e3e d5d6 163e
000000c0: f7bb 513e a312 ba3d 11f6 29be 4e57 febd
000000d0: b464 c23c 9c9b 1abe b3ca 453d 5cc7 6fbe
000000e0: c518 fd3d 4304 673e 1b84 12be df8e ecbd
000000f0: 92ab eabd b0b8 0dbe 39b1 753e 9fed 5a3e
00000100: f30c 673e a365 683b 7abb c83d 8f7e 333d
00000110: 0b0a cabd f174 473e a2df 323e d13e 9b3c
00000120: 0e82 513e ee29 3fbe 3b0d 403e 5a2b 8abd
00000130: 1243 4bbe 1636 213e 3b80 853c caec e23d
00000140: ee26 62be 5d31 5fbe 3992 483e 5baf 473e
00000150: 3bf5 473e cd44 79be 8459 9f3d c4b7 00bd
00000160: b6b7 49be ca9f 093e ce02 3db9 61d5 3ebe
00000170: 3426 973d a16b 1d3e 52c6 793e dee4 543e
00000180: 9289 423e 8ea5 923d cf86 623e b165 08be
00000190: 651b cbbd 2cf3 c2bd 642c 73bd 74fc 3ebc
000001a0: 49ff 1dbe 982f 0abe 1a84 29be 40c1 9b3d
000001b0: 65b2 813e d0f4 30be 6a3a 5b3e 1fc8 2cbe
000001c0: 9426 f1bc 782c 5dbe 50a8 0d3e f4d2 793e
000001d0: f2c2 5abe d0e3 d73d 97df febc f8dd 453e
000001e0: dff6 0bbe 5e6b 2c3c aeb7 7bbd ccd7 3cbe
000001f0: 44d4 5a3e c493 5bbe a9aa 823e d42d f23d
00000200: a4dd 4e3e 1dc6 20bb 6eb8 98bd 7a0b dfbc
00000210: e095 3bbe d8bb 75be 2460 19bc 6508 f13d
00000220: 09d4 3f3e 6d40 a0bd e3a5 143e af7f 42bb
00000230: 9d66 83be fd28 5bbe 4c45 a03d b126 48be
00000240: d803 603e 48d7 9f3b 1b2b a3bd 9404 3abe
00000250: 2a8a 693b 57e0 233e 02b0 3dbe fd1c 51bd
00000260: 347c 4bbd 12c1 fcbd 4185 ae3d 8155 683e
00000270: 702c 06bd 8f6b cbbd 1553 b43d 8c0a 923d
00000280: d0d4 0f3e 93ed f03d 36c0 8ebc 7932 74be
00000290: 15e7 ddbd d3f7 543e a023 603e b4db 4fbe
000002a0: 8345 f93d d17d 4b3e 73ae af3d a067 733e
000002b0: e814 323e 3901 85bd acd6 84be eb63 1cbd
000002c0: 2448 7c3e eefd 083d f46c 1fbd 5d76 603e
000002d0: c0f0 8ebd c128 813e e7e4 5f3e 9f24 03be
000002e0: 1e8b 0bbe f584 a7bd e562 543e 1017 8a3d
000002f0: 0a7b 213c 09cb c03d 9b68 28be fb4d 043e
00000300: 6c9d 48be 73a4 5e3e 32ba b73c 8f64 1c3e
00000310: 4ce9 033d 4129 78be 80f5 243e 3797 31be
00000320: e8e2 433e 4b87 e1bd 36a5 62be 6cbc 113e
00000330: ff43 31be 2e4b 143e 5e79 4e3e bd4e c0bd
00000340: 1c91 713d 3fad 73bd 208f 02be eca3 0fbe
00000350: dfd6 42be 8a5d 433e 2dd7 33be f596 2b3d
00000360: 36d0 8cbd 809f f23d 1ec9 653e cbb6 5c3e
00000370: cd0e 5d3e 7550 a4bd 15e1 8dbc e518 e23c
00000380: 7ee8 283e 8e5e f7bd 6e19 793e 6dbd 263c
00000390: 028c 7d3e 141b 12be 5cec 593e b997 51bd
000003a0: d729 e0bd 5502 fdbd 2cac 653e 3088 303e
000003b0: 9d83 f9bd ffa9 093e 3804 843d d998 4a3e
000003c0: 1a86 adbd c5d7 863d 791b 383d 38f9 afbd
000003d0: 4add 3e3c 50c1 0f3e 073e e23d 41fe 50be
000003e0: 06bb 6e3e 144c 4d3e 9a70 6cbe 402d e83b
000003f0: ec44 2a3c eb83 71be 1962 46bd 7638 20bd

transformer_encoder.layers.1.self_attn.out_proj.bias f4 [16]
-0.0027069936 0.001224987 0.009481664 -0.0037779463 0.0011055314 0.0063508907 -0.011614128 0.0027907689
0.010474581 -0.013027828 -0.0002174404 0.0028127704 -0.0016097887 -0.01143484 0.015728246 -0.0009509878
00000000: d167 31bb be8f a03a fb58 1b3c 6c97 77bb
00000010: 7ae7 903a 221b d03b 2f49 3ebc 55e5 363b
00000020: 949d 2b3c ac72 55bc b700 64b9 7556 383b
00000030: 8cff d2ba 3259 3bbc 86d8 803c b64b 79ba
