models/ed16nl2dr0.3dt400.pth (torch, 619273 bytes, 27 tensors)

embedding.weight f4 [16, 1]
0	0x3e911a5e	0.2834043
1	0xbf83a1cd	-1.0283753
2	0xbf02f459	-0.51154095
3	0xbf84dcac	-1.0379844
4	0xbe5ec517	-0.21754871
5	0x3f2b3637	0.668796
6	0xbf732328	-0.9497552
7	0x3f66c9f9	0.90151936
8	0x3f81ff98	1.0156126
9	0xbf82f64c	-1.0231414
10	0x3f22b4d3	0.63557166
11	0x3f0f6d4b	0.5602614
12	0xb93b9111	-0.00017887751
13	0xbf73781c	-0.9510515
14	0xbe295c34	-0.16539079
15	0x3dedba12	0.11607756

embedding.bias f4 [16]
0	0xbdcc2002	-0.099670425
1	0x3dbcf986	0.0922728
2	0xbe5eee01	-0.21770479
3	0x3e489772	0.19589022
4	0xbf496391	-0.7866755
5	0x3e247286	0.16059312
6	0xbf66c243	-0.9014017
7	0x3f11094a	0.566548
8	0x3e589026	0.21148738
9	0x3f25fd23	0.6483938
10	0x3f3af85b	0.7303521
11	0xbf371240	-0.7151222
12	0xbe7db618	-0.24776495
13	0xbf632707	-0.88731426
14	0xbe34fbe8	-0.1767422
15	0x3ef98ea4	0.4874164

transformer_encoder.layers.0.self_attn.in_proj_weight f4 [48, 16]
0	0x3e1e5913	0.15463667
1	0xbe36f258	-0.17865884
2	0xbe6baa0e	-0.2301409
3	0x3e2eea52	0.17081574
4	0xbddba4b8	-0.10724777
5	0xbdfe5212	-0.124179974
6	0xbd8db19b	-0.06918641
7	0xbdf6f1bb	-0.12057825
8	0x3e91cb09	0.28475216
9	0xbd7a5625	-0.06111731
10	0x3df5b8a8	0.11998111
11	0x3dc58a49	0.096455164
12	0x3c3f7db8	0.0116876885
13	0x3e264beb	0.16239898
14	0x3d96bc5a	0.07360144
15	0xbe3d22f3	-0.18470363
16	0xbe2f31a1	-0.17108776
17	0xbe64c7ed	-0.2234189
18	0x3e41418d	0.18872662
19	0x3e87b65a	0.2650631
20	0xbcefa620	-0.02925402
21	0x3dbf6765	0.09345893
22	0xbd248fe3	-0.040176284
23	0x3e7c3812	0.24630764
24	0xbe254071	-0.16137864
25	0xbe657c6c	-0.22410744
26	0x3dbcd12b	0.09219583
27	0x3e659243	0.22419076
28	0x3bcf4b26	0.006326097
29	0xbe847b63	-0.25875387
30	0x3e8528a5	0.26007572
31	0xbe85a1af	-0.26099917
32	0x3e6f8848	0.23391831
33	0x3d6c03a5	0.057620663
34	0x3e8aa759	0.270808
35	0x3e57a712	0.21059826
36	0xbd122853	-0.035682987
37	0x3d58c410	0.052921355
38	0x3e17cce9	0.14824261
39	0x3e0fbec1	0.1403761
40	0x3d62e17d	0.055390824
41	0xbe085e1f	-0.13317154
42	0x3d907d29	0.070551224
43	0xbd24026c	-0.040041372
44	0xbe137c1e	-0.14402816
45	0x3d932e53	0.0718657
46	0xbe49a993	-0.19693594
47	0x3e95d57f	0.29264447
48	0xbe0654f0	-0.13118339
49	0xbc9b2f77	-0.018943531
50	0xbe92af4f	-0.28649375
51	0xbe4bbeb9	-0.19896974
52	0xbd4cd47f	-0.05000734
53	0xbe72d919	-0.23715629
54	0x3e4a58dd	0.19760461
55	0xbd93f474	-0.0722436
56	0xbe6f576d	-0.23373194
57	0xbe6944b1	-0.2278011
58	0x3e7d876e	0.24758694
59	0x3e86c0b9	0.2631891
60	0x3e4825ad	0.19545622
61	0x3e03962b	0.12850253
62	0x3e84d271	0.25941804
63	0x3dafde49	0.085873194
64	0xbd8b8a7e	-0.06813525
65	0xbeaf8a0c	-0.3428501
66	0x3ca401d6	0.020020407
67	0xbda02cbf	-0.07821035
68	0x3e1d9fe3	0.15393023
69	0x3e283a43	0.16428475
70	0x3debe724	0.11518696
71	0xbea49885	-0.32147613
72	0x3dccc621	0.099987276
73	0x3e04225f	0.12903737
74	0x3e1488f1	0.14505364
75	0xbe972d5d	-0.29526797
76	0xbe06b1a4	-0.13153702
77	0xbe286d80	-0.16448021
78	0x3d7f88c4	0.06238629
79	0xbc189b42	-0.00931436
80	0x3e3a36cb	0.18184964
81	0xbd937ae2	-0.072011724
82	0x3df12ff6	0.11776726
83	0x3e8991f1	0.26869157
84	0xbe417702	-0.18893054
85	0xbde9a6ff	-0.11408805
86	0x3e753b87	0.23948489
87	0x3e84bf39	0.2592714
88	0xbe8f9fcd	-0.28051606
89	0x3e5c3fa7	0.21508656
90	0x3e30dd07	0.17271815
91	0xbc075289	-0.008259424
92	0x3e73e5fb	0.238182
93	0xbdda84f1	-0.10669888
94	0x3e003e51	0.12523772
95	0xbe8f5d45	-0.28000847
96	0xbe6d8d99	-0.23198546
97	0xbe2dba47	-0.1696559
98	0xbe2a01b4	-0.16602212
99	0x3e352700	0.17690659
100	0x3ea03b01	0.31295016
101	0xbea71e00	-0.32640076
102	0x3e82c273	0.25538978
103	0xbe7421dd	-0.23841043
104	0xbe4a2697	-0.19741283
105	0xbd0ffced	-0.03515332
106	0xbe2c69f8	-0.16837299
107	0xbcfbec19	-0.030752229
108	0xbe48c3f7	-0.19606005
109	0x3de6b105	0.112642325
110	0x3e183a82	0.14866069
111	0xbe0690c7	-0.13141166
112	0xbe4fb88c	-0.20285243
113	0xbe97c9eb	-0.2964624
114	0x3e54bb68	0.20774615
115	0x3e346b9e	0.17619178
116	0x3e0a50b7	0.13507353
117	0x3e90b820	0.28265476
118	0xbda26a26	-0.079304025
119	0xbd9923da	-0.07477541
120	0x3e4f51cc	0.20246047
121	0x3c7184ce	0.014741136
122	0xbdae435d	-0.08508942
123	0xbdc8793a	-0.09788747
124	0xbe18e046	-0.14929304
125	0x3d9d5182	0.07681562
126	0x3ddc9c4e	0.10772
127	0xbda71063	-0.081574224
128	0x3cc7fea3	0.024413412
129	0xbe42ce7e	-0.19024083
130	0xbe7d1d2d	-0.24718161
131	0x3d0adcca	0.033901967
132	0xbe2daf7a	-0.1696147
133	0x3c44c939	0.012010866
134	0x3d15cc67	0.036571886
135	0x3e8c5fa1	0.2741671
136	0xbd9e16f5	-0.077192225
137	0x3e4a5c6b	0.19761817
138	0x3c67110e	0.014103187
139	0x3d386f90	0.04502827
140	0xbe79f623	-0.244103
141	0x3e81fcb5	0.25388113
142	0xbe8d51bd	-0.27601424
143	0x3e7df8d1	0.24801947
144	0xbe1d4e3e	-0.15361878
145	0x3e460d73	0.19341068
146	0x3e057847	0.13034163
147	0xbe4c822b	-0.1997153
148	0xbdf4711b	-0.11935636
149	0xbcd0277e	-0.025409456
150	0x3d0e65c1	0.03476501
151	0xbe7c1996	-0.24619135
152	0xbdfd03e6	-0.12354259
153	0xbd336752	-0.043799706
154	0xbe2833f5	-0.1642607
155	0x3eaec198	0.34132075
156	0xbe53caee	-0.2068288
157	0xbd0b96e5	-0.03407945
158	0x3d003177	0.031297173
159	0xbd316502	-0.04330922
160	0x3dca9cc4	0.09893182
161	0xbe12b92a	-0.14328447
162	0x3ea7fbc5	0.32809272
163	0x3d9a62f5	0.07538406
164	0x3e57171f	0.21004914
165	0x3aea98a5	0.0017898275
166	0xbddc8889	-0.107682295
167	0x3b06974c	0.0020536957
168	0xbdb2418c	-0.08703908
169	0xbe876c23	-0.2644969
170	0xbb2a996d	-0.002603139
171	0x3e0a9d21	0.13536502
172	0xbe2e8bb6	-0.17045483
173	0x3db385b9	0.0876574
174	0x3e7e7229	0.24848236
175	0xbc8e8108	-0.017395511
176	0xbe8e5c37	-0.2780473
177	0x3d365609	0.044515643
178	0xbe5e62ee	-0.21717426
179	0x3e4a32cb	0.19745938
180	0x3d6ef215	0.058336336
181	0xbe03db19	-0.12876548
182	0x3de1c646	0.11024146
183	0xbe2affca	-0.16699138
184	0x3ea1f36a	0.31631023
185	0xbe2655b6	-0.16243634
186	0x3e453c8a	0.19261375
187	0xbe5b9650	-0.21444058
188	0xbe9485c8	-0.29008317
189	0xbe8d173e	-0.27556795
190	0xbe1fc3b8	-0.15602005
191	0x3dab4cf2	0.083642855
192	0xbe7cb6f7	-0.2467917
193	0x3dda4209	0.106571265
194	0x3dd7d12c	0.10537943
195	0x3e7d34f9	0.24727239
196	0x3e705f68	0.23473895
197	0xbe4aa9ba	-0.19791308
198	0x3deee0f2	0.11663999
199	0x3d8a953b	0.06766745
200	0xbe8ad2b7	-0.27113888
201	0x3e9201b9	0.2851694
202	0x3e74d8f1	0.23910882
203	0xbc8b43de	-0.017000135
204	0x3e876e2a	0.26451236
205	0x3e97cf7c	0.29650486
206	0x3e47687d	0.19473453
207	0xbbe4b7bf	-0.006979912
208	0xbea28ac5	-0.31746498
209	0x3d3a8c02	0.045543678
210	0xbdece40e	-0.115669355
211	0x3da7c563	0.081919454
212	0xbe6083e9	-0.2192532
213	0xbd1fb6da	-0.03899274
214	0xbe7c7b51	-0.24656416
215	0xbdefe87a	-0.11714263
216	0x3d0f57fb	0.034996014
217	0x3e5ceaa3	0.21573882
218	0x3de262b5	0.11053983
219	0x3e2f0689	0.17092337
220	0x3e6d7d4d	0.2319233
221	0x3dc8ecab	0.09810766
222	0x3e56b776	0.20968422
223	0xbda6adb5	-0.08138601
224	0x3e8a7282	0.27040488
225	0xbdeeab89	-0.116538115
226	0x3e966cbc	0.29379833
227	0xbd34f648	-0.044180185
228	0x3e902ce0	0.28159237
229	0xbe8b053a	-0.27152425
230	0xbe23ee9d	-0.16008992
231	0xbe4153de	-0.18879649
232	0x3df1c361	0.11804844
233	0xbe28aad2	-0.16471413
234	0x3e0cf74b	0.1376621
235	0xbd9bc2b8	-0.07605499
236	0x3e8ef4b6	0.27921075
237	0xbe1b2284	-0.15149885
238	0x3e05e249	0.13074602
239	0x3e583d51	0.2111714
240	0x3dc2cb70	0.09511459
241	0x3d99f685	0.07517723
242	0x3e420915	0.18948777
243	0xbe5c9123	-0.2153974
244	0x3dfa8d70	0.12234008
245	0x3e27aa7d	0.1637363
246	0xbe0fabcc	-0.14030379
247	0xbca69f22	-0.020339552
248	0x3e52f5ca	0.20601574
249	0xbc6aacb6	-0.014323404
250	0x3e0cff3a	0.13769236
251	0xbe7ef783	-0.24899106
252	0xbdff0a2d	-0.12453113
253	0x3d47480a	0.048652686
254	0x3e84013c	0.25782192
255	0x3e344349	0.17603792

transformer_encoder.layers.0.self_attn.in_proj_bias f4 [48]
0	0xbc009b88	-0.007849582
1	0x3cae5c2d	0.021284187
2	0x3a6dfdbc	0.0009078642
3	0xba9b83a8	-0.0011864798
4	0xbd863821	-0.065536745
5	0x3a30810a	0.00067330955
6	0xbd13e992	-0.036111422
7	0xbbe21b45	-0.0069002234
8	0x3c130a80	0.008974671
9	0x3cb173d1	0.02166167
10	0xbc8286bc	-0.015933387
11	0x3c809f6c	0.015701018
12	0xbc151d0e	-0.009101165
13	0xbcf326e2	-0.029681627
14	0xbd2c8c53	-0.04212601
15	0x3c4c193c	0.012457188
16	0xb8881b3e	-6.4900596e-05
17	0x3857971f	5.1400737e-05
18	0xb8f1a24e	-0.00011522007
19	0x37ca0f80	2.4087494e-05
20	0xb73310c9	-1.06731395e-05
21	0x3747d496	1.1910821e-05
22	0x389e4db1	7.548498e-05
23	0x36995586	4.5697116e-06
24	0xb7620c90	-1.3473575e-05
25	0xb8235f26	-3.8950842e-05
26	0x37f9ad63	2.9763853e-05
27	0xb8346a00	-4.3014064e-05
28	0x380fc8ed	3.4280984e-05
29	0x37c4927e	2.3433236e-05
30	0x38301439	4.1980504e-05
31	0x37de3e13	2.6493368e-05
32	0x3aa35d0e	0.0012463646
33	0x3b2c621e	0.00263036
34	0x3c3b573b	0.011434372
35	0xbb7fbe75	-0.0039023433
36	0xbbd49e59	-0.006488603
37	0xba0e1cef	-0.00054211816
38	0x3b22aee8	0.002482349
39	0xbcf75c54	-0.030195393
40	0xbb3e32d6	-0.0029022
41	0x3caa35f4	0.02077768
42	0xba45b01c	-0.0007541196
43	0x3ca1a962	0.019734088
44	0xbcaca35a	-0.021073986
45	0xbc4737bd	-0.012159285
46	0xbca2af25	-0.019858906
47	0x3c23df03	0.010001901

transformer_encoder.layers.0.self_attn.out_proj.weight f4 [16, 16]
0	0xbe52d854	-0.20590335
1	0xbe01d5d7	-0.1267923
2	0x3e7a80e7	0.24463235
3	0xbe64dd1a	-0.22349969
4	0xbe5aaf6a	-0.21355978
5	0x3e5e064e	0.21682093
6	0x3deafd71	0.11474121
7	0x3db29f1a	0.087217525
8	0x3e64569f	0.22298668
9	0x3da17530	0.0788368
10	0xbe4aed4d	-0.19817086
11	0x3c93e120	0.018051684
12	0xbe602fbe	-0.21893212
13	0x3cf7b439	0.030237304
14	0xbe6c88c6	-0.2309905
15	0xbe13bd8e	-0.14427778
16	0xbe37ad65	-0.17937239
17	0xbda3bbda	-0.07994814
18	0x3d286ebe	0.041121237
19	0xbda7c37b	-0.08191582
20	0x3dc3b110	0.09555256
21	0x3cd5a6c3	0.026080495
22	0xbdf70d9e	-0.12063144
23	0x3d385680	0.045004368
24	0x3dfe47f5	0.124160685
25	0xbd9bf274	-0.07614604
26	0xbd691827	-0.0569078
27	0xbe6b4473	-0.2297533
28	0x3e403e8d	0.18773861
29	0x3e206e3f	0.15667056
30	0xbd81acff	-0.063318245
31	0x3e04db6b	0.12974326
32	0xbe4eb5ad	-0.20186491
33	0x3c7a19ff	0.015264987
34	0xbe2a5888	-0.16635334
35	0xbd137f15	-0.036009867
36	0xbe3819aa	-0.1797854
37	0x3e13cc2a	0.14433351
38	0x3e37153d	0.17879196
39	0xbe414ef5	-0.18877776
40	0x3de2b759	0.11070127
41	0xbdb51535	-0.088419355
42	0x3de37318	0.11105937
43	0xbe39da89	-0.18149771
44	0x3e260841	0.16214086
45	0x3e3ab4f2	0.18233088
46	0x3db64dea	0.0890158
47	0xbdbff747	-0.09373336
48	0x3d611ade	0.054957263
49	0x3e583a02	0.21115878
50	0xbd806fe6	-0.06271343
51	0x3e3a9002	0.18218997
52	0xbdf68c26	-0.1203845
53	0xbd33014f	-0.04370242
54	0x3d930fed	0.07180772
55	0xbd192a64	-0.037393942
56	0xbe1b9ba7	-0.15196095
57	0x3e101dae	0.14073822
58	0x3cecb463	0.028894609
59	0xbe3789be	-0.17923638
60	0xbd079f3d	-0.033110846
61	0xbe10f508	-0.14155972
62	0xbe55a409	-0.20863356
63	0x3cf2f69c	0.029658608
64	0xbe55be87	-0.20873462
65	0xbe6415c9	-0.22273935
66	0xbe6dfd9a	-0.23241273
67	0xbd285aac	-0.041102096
68	0x3e3cb25f	0.18427418
69	0x3e6338d0	0.22189641
70	0xbe37794e	-0.17917368
71	0x3e80a7ac	0.25127923
72	0x3dfcc7db	0.12342807
73	0xbe5ddd86	-0.21666536
74	0xbe7534de	-0.23945948
75	0xbdb2a1e4	-0.087222844
76	0xbe6bbae9	-0.2302052
77	0x3e170622	0.14748433
78	0x3d20a6bb	0.039221507
79	0x3e18f990	0.1493895
80	0xbc3c7ba7	-0.01150409
81	0xbe6ebc7f	-0.23314093
82	0x3cf949ed	0.030430758
83	0xbe25a73f	-0.1617708
84	0x3e1b6fb5	0.15179332
85	0xbe628962	-0.2212272
86	0x3e310b11	0.17289378
87	0xbe4ca670	-0.19985366
88	0x3dbaa0b4	0.09112683
89	0x3dede796	0.11616437
90	0x3e50ad49	0.20378603
91	0x3db63d27	0.08898383
92	0xbddacb13	-0.106832646
93	0xbd9a7074	-0.0754098
94	0x3e0abda5	0.13548906
95	0x3ddd69e0	0.1081121
96	0xbdaa0d7b	-0.083033524
97	0x3dcd604b	0.10028132
98	0xbd71194c	-0.058862016
99	0xbe2834cb	-0.16426389
100	0xbce1d912	-0.027569328
101	0x3e26bb47	0.16282378
102	0x3e6cad62	0.23113015
103	0x3d23534b	0.039874356
104	0x3e31de3e	0.17369935
105	0x3d0328a6	0.032021187
106	0x3e22004e	0.15820429
107	0x3e3fe414	0.18739349
108	0xbe4bbe79	-0.19896878
109	0x3e6faf5a	0.23406735
110	0xbe0077f2	-0.12545756
111	0x3e30dc39	0.17271508
112	0x3e0d22f1	0.1378286
113	0x3e7faf8c	0.2496931
114	0xbe5b88ee	-0.21438953
115	0x3e77b2b3	0.24189262
116	0xbdd5a6b2	-0.10432185
117	0x3e15baa3	0.14621978
118	0xbe80e291	-0.25172856
119	0xbd95598e	-0.07292472
120	0x3e0628c5	0.1310149
121	0x3e101821	0.14071704
122	0x3e174f75	0.14776404
123	0x3c86dc6b	0.016462525
124	0xbc839096	-0.016060155
125	0x3e28ba4b	0.16477315
126	0x3d95ea86	0.073201224
127	0x3e27e0d1	0.16394354
128	0x3c2a79dc	0.01040503
129	0xbddf0848	-0.108902514
130	0x3e2f23e9	0.17103542
131	0x3e2882db	0.16456167
132	0x3e2642fd	0.16236492
133	0xbd56ff84	-0.052489772
134	0xbdd6222c	-0.104557365
135	0xbcda59a6	-0.026654076
136	0x3d2ba262	0.041902907
137	0x3d7e505d	0.06208836
138	0xbde55b03	-0.11199
139	0xbc0d6936	-0.008631041
140	0x3de302dc	0.1108453
141	0x3d84c152	0.064821854
142	0xbdc0da9f	-0.09416699
143	0xbdeabf2f	-0.114622466
144	0xbdd93bba	-0.10607095
145	0xbe5d8303	-0.21632008
146	0x3cc63e50	0.024199635
147	0x3e465736	0.19369206
148	0x3dd50d1a	0.104028895
149	0xbe08808d	-0.13330288
150	0x3c11834c	0.008881401
151	0xbcfaa9bb	-0.030598512
152	0xbcf1622e	-0.029465761
153	0xbd3dc527	-0.046330597
154	0xbe4ac685	-0.19802292
155	0xbdc815aa	-0.09769757
156	0x3e2bc0aa	0.16772714
157	0xbe64c799	-0.22341765
158	0x3e691515	0.22761948
159	0x3e018d7d	0.1265163
160	0x3e737157	0.23773704
161	0x3e150ea0	0.1455636
162	0xbd98cd1d	-0.07460997
163	0x3e2b502f	0.16729806
164	0xbae53acd	-0.0017488837
165	0xbdaed545	-0.08536772
166	0xbe6ba15c	-0.23010772
167	0x3dd98ef9	0.10622973
168	0x3e6acfaf	0.22930788
169	0x3d4df51c	0.050282583
170	0x3e4cf93f	0.20016955
171	0xbd35fd50	-0.04443103
172	0xbdcd5073	-0.1002511
173	0xbb99c86c	-0.0046930816
174	0x3b85a590	0.0040785745
175	0x3dee9201	0.11648942
176	0x3daa12c9	0.08304364
177	0x3d29668f	0.041357573
178	0xbe0449bf	-0.12918757
179	0xbe3b13fd	-0.18269344
180	0x3da0c8fc	0.07850835
181	0x3d8b3ae6	0.06798343
182	0x3e3f7638	0.1869744
183	0xbe63aeeb	-0.22234695
184	0xbe2c6c3c	-0.16838163
185	0xbe60d154	-0.21954852
186	0xbc8325e3	-0.016009277
187	0xbe54f3d3	-0.20796137
188	0x3cf9b617	0.030482335
189	0x3e242e6f	0.16033338
190	0x3e670812	0.22561672
191	0x3e38bb3c	0.18040174
192	0x3e13effe	0.14447019
193	0x3d0eafe4	0.03483571
194	0x3d36b256	0.04460367
195	0xbe1c05e9	-0.1523663
196	0xbe82a0fa	-0.2551344
197	0x3e213b5e	0.15745303
198	0x3e45c178	0.19312084
199	0xbb1e5051	-0.002415676
200	0x3df4139e	0.11917804
201	0x3d4c7567	0.04991665
202	0xbe1dadf3	-0.15398388
203	0xbdd24ae4	-0.102681905
204	0xbe5e2436	-0.21693501
205	0xbbd33fcb	-0.0064468137
206	0xbd0632a7	-0.03276315
207	0xbd3db08f	-0.046310958
208	0xbe31bd89	-0.17357458
209	0xbb0b04e7	-0.0021212639
210	0x3e14ad23	0.14519171
211	0xbdf7da6f	-0.1210221
212	0xbe3f8631	-0.18703534
213	0x3e490ffe	0.19635007
214	0xba626e66	-0.00086376665
215	0xbe588d51	-0.21147658
216	0x3d9bbdd1	0.07604564
217	0x3e371663	0.17879634
218	0xbe6a8d4f	-0.22905467
219	0x3e4dd932	0.20102385
220	0x3e1b2741	0.15151693
221	0x3aba3b3f	0.001420833
222	0xbe1e42ee	-0.15455219
223	0x3dedfcf9	0.11620516
224	0x3e3e7e28	0.18602812
225	0x3e1bc569	0.15212025
226	0x3bbb83fd	0.0057225213
227	0x3d1be8fd	0.03806399
228	0xbe08e16d	-0.13367243
229	0xbe0db04e	-0.13836786
230	0x3d98a0c6	0.0745254
231	0x3e67f63a	0.22652522
232	0x3b85dc2c	0.0040850844
233	0x3da1236b	0.078680836
234	0xbde92dc9	-0.11385686
235	0x3e053767	0.13009416
236	0xbddd411a	-0.10803433
237	0xbe682e14	-0.22673827
238	0x37675a1d	1.3789654e-05
239	0xbe09defe	-0.13463971
240	0x3e21f0a1	0.15814449
241	0xbd9695e8	-0.07352811
242	0x3dfd59af	0.123706214
243	0xbe10819b	-0.1411194
244	0xbe4b64e3	-0.19862704
245	0xbe1bb1e1	-0.15204574
246	0xbbb46652	-0.0055053616
247	0x3d980bae	0.07424103
248	0x3e07e7aa	0.13271967
249	0x3e7a1910	0.24423623
250	0x3dd0d47e	0.1019678
251	0xbe7e931c	-0.24860805
252	0x3e42bec4	0.19018084
253	0x3e58d648	0.21175492
254	0xbe56323a	-0.20917597
255	0xbdda4a93	-0.10658755

transformer_encoder.layers.0.self_attn.out_proj.bias f4 [16]
0	0xba54218b	-0.00080921565
1	0xbca87ebf	-0.02056825
2	0xbc514a75	-0.0127741
3	0x3c25daf6	0.010123005
4	0x3bb1f603	0.005430938
5	0x3ccbf179	0.024895417
6	0x3c3942fb	0.011307473
7	0xba14b1f4	-0.0005672269
8	0x3b447f59	0.0029983132
9	0x3b0d9e61	0.0021609294
10	0xbbc3248c	-0.0059552845
11	0xbc39c47e	-0.011338351
12	0x3d0350ec	0.032059595
13	0x3d2bfe8c	0.0419908
14	0xbbd3f618	-0.0064685456
15	0xbbf0ffea	-0.007354726

transformer_encoder.layers.0.linear1.weight f4 [2048, 16]
0	0x3d2b1c72	0.041775174
1	0x3da8e18f	0.08246147
2	0x3ddc7258	0.10763997
3	0x3d149da8	0.036283165
4	0x3e19eec7	0.15032493
5	0x3e3a7245	0.18207653
6	0x3c89dcb8	0.01682888
7	0xbe196f5c	-0.14983886
8	0xbdc98526	-0.09839849
9	0x3d727dac	0.05920188
10	0xbe46c7bb	-0.19412129
11	0x3dca8258	0.09888142
12	0xbd0610af	-0.032730754
13	0x3bb30239	0.0054629114
14	0xbe1e0743	-0.15432458
15	0xbe71753e	-0.2357988
16	0x3d333659	0.043753
17	0xbe4332ab	-0.19062297
18	0x3e69dc6d	0.22837992
19	0x3e4f1394	0.20222312
20	0x3e42cacc	0.19022673
21	0x3d820cfa	0.06350131
22	0xbc719cf8	-0.014746897
23	0xbbcac1d5	-0.0061876574
24	0xbcb182e4	-0.021668859
25	0x3d9fe53f	0.07807397
26	0xbe012eab	-0.12615459
27	0x3dc82132	0.097719565
28	0x3e4e8f75	0.20171912
29	0x3de5b90b	0.11216935
30	0xbd30fe71	-0.043211404
31	0xbdadc8a0	-0.08485532
32	0x3cd0662a	0.02543934
33	0x3e41ebc1	0.18937589
34	0xbe212412	-0.15736416
35	0x3d965ddd	0.07342122
36	0xbe57c993	-0.21072988
37	0x3ce4a63d	0.0279113
38	0x3dcc4ce0	0.099756
39	0x3e68f1dc	0.22748512
40	0xbe6580bc	-0.2241239
41	0x3e48929c	0.19587177
42	0x3deab18c	0.11459646
43	0x3b821c8d	0.0039706887
44	0xbdace859	-0.08442754
45	0x3e5e45de	0.2170634
46	0xbdea3018	-0.114349544
47	0x3e667881	0.22506906
48	0xbe80b6f0	-0.2513957
49	0xbcb43bda	-0.022001196
50	0x3c1e17bb	0.0096492125
51	0x3e71aa31	0.23600079
52	0x3e499305	0.1968499
53	0xbcfa25e7	-0.030535651
54	0x3bc3e1c8	0.005977843
55	0xbdbb83fe	-0.09156035
56	0xbdcf0218	-0.10107821
57	0x3cd67242	0.02617753
58	0x3d7bed36	0.06150552
59	0xbe78d783	-0.24300961
60	0xbd7bc17b	-0.061463814
61	0x3e25d665	0.16195066
62	0x3d0e123c	0.03468536
63	0x3d410833	0.04712696
64	0xbdbd13e2	-0.09232308
65	0xbcdc36e7	-0.026881648
66	0x3e5cf942	0.2157946
67	0xbe7a4139	-0.24438943
68	0xbda060c5	-0.07830957
69	0xbe575e56	-0.2103208
70	0xbdbb7204	-0.09152606
71	0xbe6d7a3a	-0.23191157
72	0x3e7f2d0d	0.2491953
73	0x3de1d75f	0.11027407
74	0xbd103bb6	-0.035213195
75	0xbe0aed7c	-0.13567156
76	0xbe6f7b9b	-0.23386995
77	0xbe40d505	-0.1883126
78	0xbddd69e6	-0.10811214
79	0x3dfae6e8	0.12251073
80	0xbe1534d9	-0.14570941
81	0x3dde42a8	0.108525574
82	0xbe7baf3f	-0.2457857
83	0xbe7df90c	-0.24802035
84	0xbd7c65cd	-0.061620522
85	0xbe160b9b	-0.14652865
86	0x3e39b242	0.18134406
87	0x3d7ac828	0.06122604
88	0xbdf2d8eb	-0.1185778
89	0x3cf36e16	0.029715579
90	0xbdd4329b	-0.10361215
91	0xbccbef32	-0.02489433
92	0xbbe7fa20	-0.007079378
93	0x3e1a926d	0.1509492
94	0x3e57af40	0.21062946
95	0x3d05edc5	0.032697458
96	0xbb7274aa	-0.0036995807
97	0xbdcd718d	-0.10031424
98	0xbd6ba2eb	-0.057528418
99	0xbcd7f8d8	-0.026363775
100	0xbe4db952	-0.20090225
101	0xbe06ebd3	-0.13175897
102	0x3daae39f	0.083441965
103	0x3d608553	0.054814648
104	0xbdb3ac74	-0.08773127
105	0x3dc3c66c	0.0955933
106	0x3e209d92	0.15685108
107	0x3dd1f2e8	0.10251409
108	0xbe1547cb	-0.14578168
109	0x3e3efb39	0.18650521
110	0xbd3c4fa2	-0.04597438
111	0x3ca173cd	0.019708538
112	0xbe78138b	-0.24226205
113	0x3e5b9be1	0.21446182
114	0xbc6211a5	-0.013798152
115	0x3e3dc3d5	0.18531735
116	0x3c016a27	0.007898844
117	0xbd8be656	-0.068310425
118	0x3e6c5d52	0.23082474
119	0x3e4ba0f0	0.19885612
120	0xbe4b4601	-0.19850923
121	0xbe655450	-0.22395444
122	0x3e5e5f69	0.21716084
123	0x3dc5f9d2	0.0966679
124	0xbcac4d63	-0.021032995
125	0xbdb6631e	-0.08905624
126	0x3e1a5062	0.15069726
127	0x3e58cc56	0.21171698
128	0x3e84e029	0.2595227
129	0xbe49359a	-0.19649354
130	0x3daf605c	0.08563301
131	0x3d1f3630	0.038870037
132	0x3e42904c	0.19000357
133	0x3e585b36	0.21128544
134	0xbd3a32bd	-0.045458544
135	0xbde15edc	-0.11004421
136	0x3e4ef9c2	0.20212463
137	0xbe4bb2e2	-0.19892457
138	0x3d46d6c5	0.048544664
139	0x3e288a97	0.16459118
140	0xba23f90a	-0.0006255066
141	0x3cc95e61	0.024581136
142	0x3e2b37c9	0.16720499
143	0xbd8afd6c	-0.06786618
144	0xbd791ad1	-0.06081659
145	0x3e14d9a0	0.14536142
146	0x3ca0d04a	0.01963057
147	0xbe7e9e69	-0.24865116
148	0xbe667846	-0.22506818
149	0x3d9664d0	0.07343447
150	0x3c804dda	0.015662123
151	0xbe537c45	-0.20652874
152	0xbd522962	-0.051308997
153	0x3dd5779a	0.10423203
154	0xbe77c27c	-0.24195284
155	0x3e4e97aa	0.20175043
156	0xbdcf1ab4	-0.10112515
157	0xbe703a0f	-0.23459648
158	0x3dc8507f	0.097809784
159	0x3c4139e7	0.01179359
160	0xbcc212e0	-0.02369064
161	0x3e487b87	0.19578372
162	0xbe16f14a	-0.14740482
163	0x3d4194f6	0.0472612
164	0x3d232235	0.039827544
165	0xbe128f21	-0.14312412
166	0xbcbfb118	-0.023399875
167	0xbdd2f69c	-0.10300943
168	0xbc83a70f	-0.01607087
169	0xbe6ebf9d	-0.23315282
170	0x3e678448	0.22609055
171	0x3da78503	0.08179667
172	0xbdf1500c	-0.11782846
173	0xbdd5e10f	-0.10443317
174	0x3d4ed39d	0.05049478
175	0xbe6afdcd	-0.2294838
176	0x3c8557aa	0.016277153
177	0xbe54e545	-0.20790584
178	0x3e0042ef	0.12525533
179	0xbba638a9	-0.0050726724
180	0xbe36312c	-0.17792195
181	0x3e3b7262	0.18305352
182	0xbd7da2db	-0.06192289
183	0x3d841634	0.064495474
184	0x3d005193	0.031327795
185	0xbdb6269e	-0.088940844
186	0x3cd17a80	0.025571108
187	0xbda4dac7	-0.08049541
188	0x3e2ade47	0.16686355
189	0x3cf301b4	0.029663898
190	0x3e115614	0.14192992
191	0xbdf64547	-0.12024932
192	0x3cedd59d	0.029032523
193	0xbe2c31d8	-0.16815889
194	0xbd7048fb	-0.05866335
195	0xbd30ef7f	-0.04319715
196	0x3da91926	0.0825675
197	0x3e2f2278	0.17102993
198	0x3e1a79c4	0.15085512
199	0xbe0fb7ff	-0.14035033
200	0x3dc03bc6	0.09386401
201	0xbe37a051	-0.1793225
202	0x3e32a60c	0.17446154
203	0xbc7829c6	-0.015146678
204	0x3cae5a54	0.021283306
205	0xbe164bb6	-0.14677319
206	0x3e12425e	0.1428313
207	0x39f947d6	0.00047546503
208	0x3e38ba3e	0.18039796
209	0xbe6c7749	-0.23092379
210	0xbdd8d11c	-0.105867594
211	0x3e37b7ac	0.17941159
212	0x3dfc48cb	0.12318572
213	0xbd7ccc7c	-0.06171845
214	0x3e440945	0.19144161
215	0xbd5e4a85	-0.054270286
216	0x3dac7f75	0.08422748
217	0x3e32ad74	0.1744898
218	0xbdffe5c4	-0.12494996
219	0xbe0f49ec	-0.13993043
220	0x3e665cdb	0.22496359
221	0x3d811aa0	0.063039064
222	0xbd963435	-0.073341765
223	0x3e291d24	0.16515023
224	0xbe1f2470	-0.15541244
225	0x3e454358	0.19263971
226	0xbd82a224	-0.06378582
227	0xbdc8945a	-0.09793921
228	0x3d434f23	0.047682893
229	0x3e3d5f74	0.18493444
230	0x3e52734f	0.20551799
231	0xbd976440	-0.07392168
232	0xbe02123d	-0.1270227
233	0xbe0c9837	-0.1372994
234	0x3e30b1fd	0.17255397
235	0xbe1881de	-0.1489329
236	0xbe3169f7	-0.17325579
237	0xbd74d6ee	-0.059775285
238	0x3da3c0f5	0.07995788
239	0x3d8f30a8	0.06991702
240	0xbe0d3c5e	-0.1379256
241	0x3e8c7508	0.27433038
242	0x3de86497	0.11347311
243	0xbd8a9201	-0.06766129
244	0xbe6fb965	-0.23410566
245	0xbe08b806	-0.1335145
246	0xbe7142af	-0.23560594
247	0xbe082fb7	-0.13299452
248	0xbde3b1d6	-0.11117904
249	0x3ea18ff4	0.3155514
250	0xbe07917b	-0.1323909
251	0xbc84c7de	-0.016208585
252	0x3d5835b1	0.05278558
253	0xbd7db4ed	-0.061940122
254	0xbe478021	-0.19482471
255	0xbda0fd46	-0.07860808

transformer_encoder.layers.0.linear1.bias f4 [2048]
0	0x3d1560db	0.03646932
1	0xbe7a7a8d	-0.24460812
2	0xbd21265f	-0.039343234
3	0xbd97bafb	-0.074087106
4	0xbd4f965a	-0.050680496
5	0xbe325fad	-0.1741931
6	0xbdcd54f4	-0.10025969
7	0x3e0e8c78	0.13920772
8	0xbd64655f	-0.055760738
9	0xbaf57acb	-0.0018728612
10	0x3d91f0e9	0.07126028
11	0x3e1c1eac	0.15246075
12	0xbda3dd67	-0.080012135
13	0x3de0a0e5	0.10968188
14	0x3e45c645	0.19313915
15	0xbe197c89	-0.14988913
16	0xbce1cd57	-0.027563734
17	0x3e73d025	0.2380987
18	0x3e58535f	0.21125554
19	0x3d0f85a3	0.035039555
20	0xbe094c67	-0.13408051
21	0x3d85ccaa	0.06533177
22	0x3df7e23e	0.12103699
23	0x3df10667	0.11768799
24	0xbd2bc229	-0.041933212
25	0xbe7c90e4	-0.24664646
26	0xbe2c682f	-0.16836618
27	0xbe093194	-0.13397819
28	0xbe2e0501	-0.16994096
29	0xbd3e1c4c	-0.046413705
30	0x3e78d823	0.243012
31	0x3e69b4c7	0.22822867
32	0x3e417346	0.1889163
33	0xbdda4dc9	-0.106593676
34	0x3e3b53ae	0.1829364
35	0xbdc35fac	-0.09539732
36	0xbddbf268	-0.10739595
37	0xbdb337d0	-0.0875088
38	0xbde6f1e2	-0.11276604
39	0x3e752687	0.23940478
40	0xbe07bb23	-0.1325498
41	0x3e709e54	0.23497897
42	0x3e1a1b5c	0.150495
43	0xbc4e961d	-0.012609032
44	0x3d79c374	0.060977414
45	0x3cbf65fb	0.023364058
46	0xbd90380b	-0.07041939
47	0xbdeb1894	-0.11479297
48	0x3d25a3a7	0.040439274
49	0xbddcbfb8	-0.10778755
50	0xbc42158f	-0.01184596
51	0xbd830c2f	-0.06398808
52	0x3c393b9a	0.011305714
53	0xbe685dc7	-0.22692023
54	0x3e56f450	0.20991635
55	0x3e76ffee	0.24121067
56	0xbdce4e01	-0.10073472
57	0x3dd27e55	0.10278002
58	0x3d208e79	0.039198373
59	0xbe1a985e	-0.15097186
60	0xbafebfe9	-0.0019435856
61	0x3ded7043	0.11593678
62	0xbe181e4a	-0.14855304
63	0xbe509500	-0.20369339
64	0x3d6601f4	0.056154206
65	0xbe472371	-0.19447114
66	0xbdbfe6af	-0.09370171
67	0x3e05a6f9	0.13051976
68	0xbd6b93bd	-0.05751394
69	0xbdb1cb9d	-0.08681414
70	0x3e610d55	0.21977742
71	0xbd82866d	-0.06373296
72	0xbbadd0f5	-0.0053044506
73	0xbdc708ad	-0.09718452
74	0xbe5563bf	-0.20838831
75	0x3df3a2b9	0.11896271
76	0x3d27c73b	0.040961485
77	0xbd42e9a9	-0.047586117
78	0xbccff4c5	-0.02538527
79	0x3df2d134	0.118563086
80	0x3e5eb4c7	0.21748649
81	0x3e153081	0.14569284
82	0x3dbc8c57	0.09206455
83	0x3e18e39b	0.14930575
84	0x3e1a24bc	0.15053076
85	0x3db34a36	0.08754389
86	0xbe20969a	-0.1568245
87	0xbe73ae7e	-0.23797032
88	0xbe46ea00	-0.19425201
89	0xbd8f017b	-0.06982704
90	0xbe34d288	-0.17658436
91	0xbda9fe0c	-0.08300409
92	0x3e09550f	0.13411354
93	0x3e1a8488	0.15089619
94	0x3e304a10	0.17215753
95	0xbe276597	-0.16347347
96	0x3e6e0cbd	0.23247047
97	0xbd63f075	-0.05564924
98	0x3d5a1714	0.053244665
99	0x3cb40ad6	0.021977823
100	0x3c460582	0.012086274
101	0x3d21c2b6	0.03949233
102	0x3d7b049f	0.061283704
103	0xbc0df1d0	-0.00866361
104	0xbd1b2683	-0.037878525
105	0xbe32b45d	-0.17451616
106	0x3e08563f	0.1331415
107	0x3d30e640	0.043188334
108	0x3e544440	0.2072916
109	0xbe636ff9	-0.22210683
110	0xbe0bf9be	-0.13669488
111	0x3e4e57ee	0.2015073
112	0xbde37921	-0.11107088
113	0xbd145134	-0.036210254
114	0xbd77b7ef	-0.060478147
115	0x3df8d743	0.12150433
116	0x3b1635ad	0.0022920177
117	0x3e3c19be	0.18369195
118	0x3da18e9e	0.0788853
119	0x3de45995	0.11149899
120	0xbdc24641	-0.09486056
121	0x3da39fd5	0.0798947
122	0x3e0498ff	0.12948988
123	0x3d9cff54	0.076658875
124	0xbd915cf8	-0.070978105
125	0x3d9c8dfe	0.0764427
126	0xbbc82be3	-0.0061087473
127	0xbdbb9eaa	-0.09161122
128	0xbe21e30a	-0.15809265
129	0x3da43e03	0.0801964
130	0xb7121605	-8.707405e-06
131	0xbe45887b	-0.19290344
132	0x3e0e41fe	0.13892362
133	0xbc9807b8	-0.018558368
134	0xbac1bf96	-0.0014781829
135	0x3c25ff7b	0.010131712
136	0xbe283e22	-0.16429952
137	0xbe2c8773	-0.16848545
138	0x3c3adf69	0.011405804
139	0xbe178046	-0.14795026
140	0x3d230258	0.039797157
141	0xbdeb72c7	-0.114965014
142	0x3e684b14	0.2268489
143	0x3e2fac8a	0.17155662
144	0xbc3e2ae9	-0.01160691
145	0x3e382521	0.17982914
146	0x3d511268	0.051042944
147	0xbdf6fa08	-0.120594084
148	0x3c9e33db	0.019311836
149	0xbd51ddce	-0.05123692
150	0xbe13b149	-0.14423098
151	0xbe54c192	-0.20776966
152	0xbe30ddf8	-0.17272174
153	0x3e5d8285	0.2163182
154	0x3e1a6251	0.15076567
155	0x3e342305	0.17591484
156	0xbdef24fd	-0.11676977
157	0x3e2bd28e	0.16779539
158	0x3ded4bc5	0.115867175
159	0xbd94c57d	-0.072642304
160	0x3e608eb6	0.2192944
161	0x3cf97066	0.030449104
162	0x3e5b8a04	0.21439368
163	0xbca68682	-0.02032781
164	0xbe766ece	-0.24065706
165	0xbe68b138	-0.22723854
166	0xbdb5aa39	-0.08870358
167	0xbd81d6e7	-0.063398175
168	0x3ba175cd	0.004927373
169	0x3dfcd0ca	0.12344511
170	0x3e481fcc	0.1954338
171	0xbd30282c	-0.04300706
172	0x3e552318	0.20814168
173	0x3d239ca6	0.039944313
174	0x3e380426	0.17970333
175	0xbe308153	-0.17236833
176	0xbd8a60cf	-0.06756746
177	0xbcea1dc3	-0.028578645
178	0x3b142de4	0.002261036
179	0xbd72ba7d	-0.05925988
180	0x3db8542f	0.09000432
181	0x3d4e81e2	0.050416835
182	0x3e1fef71	0.15618683
183	0x3e357171	0.17719056
184	0x3e759693	0.23983221
185	0x3e3a13d0	0.1817162
186	0xbe4e8f6b	-0.20171897
187	0x3e0fe5a7	0.14052449
188	0xbd72be31	-0.059263412
189	0xbd952d20	-0.072839975
190	0xbe481278	-0.19538295
191	0x3d3ba464	0.045811072
192	0xbd50f8e9	-0.05101863
193	0x3e1aff0e	0.15136358
194	0x3c5c06e4	0.013429377
195	0xbdf84c57	-0.12123936
196	0x3d879a2a	0.06621201
197	0x3e1e4236	0.15454945
198	0x3e011cae	0.12608597
199	0x3e21744c	0.1576702
200	0xbd04c8d8	-0.032418102
201	0xbe24aae0	-0.16080809
202	0xbe536809	-0.20645155
203	0x3e5b8d79	0.21440686
204	0xbdaa66ee	-0.083204135
205	0xbe2e1c05	-0.17002876
206	0xbd6f9626	-0.058492802
207	0xbe5bea63	-0.2147613
208	0x3df9dcdc	0.12200329
209	0x3e5f627d	0.21814914
210	0xbe4df570	-0.20113158
211	0x3d8e987c	0.06962678
212	0x3e02a45b	0.12758009
213	0x3d45b226	0.0482656
214	0xbe54b455	-0.20771916
215	0xbe03d6da	-0.12874928
216	0xbd3325d5	-0.04373725
217	0x3b554754	0.0032543736
218	0x3ceea55d	0.029131586
219	0xbe1b96fa	-0.15194312
220	0xbe2244bf	-0.15846537
221	0x3cb4dcde	0.022077974
222	0x3e54e5d0	0.20790792
223	0xbe5d4f32	-0.21612242
224	0xbe1ccdb7	-0.15312849
225	0x3e5bba7e	0.2145786
226	0xbe27e92f	-0.16397546
227	0xbe3edef5	-0.18639739
228	0xbc9f1c72	-0.019422743
229	0x3d6a876e	0.057258062
230	0x3e2d0397	0.168959
231	0xbdb4d318	-0.088293254
232	0xbe20f568	-0.15718615
233	0xbc0fce88	-0.008777268
234	0x3df0e9fb	0.11763378
235	0xbe429fd0	-0.19006276
236	0xbe4e03fb	-0.20118706
237	0xbdb486a5	-0.08814744
238	0x3e16a233	0.14710312
239	0xbe732a17	-0.23746525
240	0x3e457b9b	0.19285433
241	0xbe436f31	-0.19085385
242	0x3d4a9aef	0.049464162
243	0x3d9575d9	0.07297868
244	0x3d8a6232	0.067570105
245	0x3d91d185	0.07120041
246	0x3dc7843c	0.097420186
247	0x3e2ca030	0.16857982
248	0x3e1498cf	0.14511417
249	0x3e35f638	0.17769706
250	0xbd459aad	-0.048243213
251	0x3e650115	0.22363694
252	0x3d48cb20	0.04902184
253	0x3e6a0c25	0.22856195
254	0x3e0e05c0	0.13869381
255	0x3cbc48df	0.022983966

transformer_encoder.layers.0.linear2.weight f4 [16, 2048]
0	0x3b381bb9	0.0028092696
1	0x3c48737d	0.012234566
2	0x3cc06201	0.023484232
3	0x3bf142f1	0.0073627164
4	0x3c74731b	0.014920021
5	0x3cc6fc2a	0.024290163
6	0x3ca721e0	0.020401895
7	0xbbef4325	-0.0073017054
8	0x3d1a2b91	0.037639204
9	0x3cd14226	0.025544237
10	0xbc2f7892	-0.010709899
11	0x3c8fd0f8	0.017555699
12	0x3ba63b9a	0.005073023
13	0x3cd5f6ae	0.026118603
14	0x3ad9b789	0.0016610484
15	0xbda2adae	-0.07943283
16	0xbbe0d88d	-0.0068617524
17	0x3cb0ae8a	0.021567602
18	0x3c912f48	0.01772274
19	0x3cd1ad19	0.025595235
20	0x3d9bfd8f	0.07616722
21	0x3b9fb0ae	0.004873357
22	0xb9c17292	-0.0003689719
23	0x3bc17c14	0.005904684
24	0xbc0becf2	-0.008540379
25	0x3b7a6e76	0.0038212813
26	0xbc4e24fb	-0.012582059
27	0xbb5e48aa	-0.0033917823
28	0x3db1bdc2	0.086787716
29	0xb8ae516f	-8.312135e-05
30	0x3d6bda76	0.057581387
31	0x3c9205da	0.017825056
32	0x39824503	0.0002484695
33	0x3b2bde87	0.0026225166
34	0xbc274f39	-0.010211759
35	0xbb9fc8c3	-0.0048762276
36	0x3d1b49f8	0.03791234
37	0xbbc11437	-0.0058923024
38	0xbbbfbadb	-0.0058511323
39	0x3d8db87f	0.069199555
40	0x3cd937c9	0.026515858
41	0x3bde607c	0.006786404
42	0x3c560095	0.013061662
43	0x3caa9f10	0.0208278
44	0xbbcda490	-0.006275721
45	0x3bf8bf1d	0.007591142
46	0xbbe737a1	-0.007056192
47	0xbc246fa7	-0.010036386
48	0x3a874e21	0.0010322967
49	0xbbc5f7f9	-0.0060415235
50	0x3c46752b	0.012112896
51	0x3c13e5c7	0.009026951
52	0x3c5e25d7	0.013558826
53	0x3cb52bc3	0.022115594
54	0xbb8808a2	-0.0041514197
55	0xbc3c6256	-0.0114980545
56	0xba838136	-0.0010033015
57	0x3cb96cf6	0.022634964
58	0x3bbf770e	0.00584305
59	0x3c24bba2	0.010054501
60	0x3d922c50	0.07137358
61	0x3cd9fe7b	0.026610604
62	0x3bb9e2d3	0.0056727915
63	0x3cd5167d	0.0260117
64	0xbb26ba3f	-0.0025440601
65	0x3d6b2d58	0.05741629
66	0xbc1fc6a6	-0.009751951
67	0xbac01e94	-0.001465755
68	0x3d9a5434	0.07535592
69	0x3c21b261	0.009869189
70	0x3c12091c	0.008913305
71	0x3af215ac	0.0018469593
72	0x3c86b7c0	0.01644504
73	0x3ac6cb05	0.0015166706
74	0x3d23d088	0.039993793
75	0xbc42bf00	-0.011886358
76	0xbc82a3e6	-0.015947293
77	0xbb8c5991	-0.004283138
78	0xbc054ad5	-0.008135517
79	0x3c46360b	0.012097846
80	0xbc8b3fc4	-0.01699818
81	0xbc0b610c	-0.0085070245
82	0x3b1525ee	0.0022758204
83	0x3c174166	0.009231901
84	0x3c7542f2	0.014969574
85	0xbc1e8138	-0.009674363
86	0xbb9e7f00	-0.004836917
87	0xbc4aa749	-0.012368985
88	0x3cd7ee5a	0.026358772
89	0xbc34f68c	-0.0110451095
90	0x3ce91333	0.028451538
91	0xbb5a4d2a	-0.0033310154
92	0x3b2f7521	0.0026772695
93	0x3ba28532	0.004959726
94	0x3c30872a	0.010774413
95	0xbbdc48b4	-0.006722534
96	0x3c7fd4ef	0.015614732
97	0x3ca61876	0.020275336
98	0xbc1b5e2a	-0.0094829
99	0xbc1ea5df	-0.009683101
100	0xbbd9394c	-0.006629145
101	0x3c78d0ac	0.01518647
102	0xbc56b6da	-0.013105119
103	0x3cface42	0.03061593
104	0x3bf24fd4	0.00739477
105	0xbc6edb5d	-0.0145786675
106	0x3cce6bae	0.02519783
107	0xbc49d371	-0.012318478
108	0x3bdb99ad	0.006701669
109	0x3c51edf3	0.012813079
110	0x3d0e3992	0.034722872
111	0x3a99e53f	0.0011741294
112	0x3c203bfa	0.0097799245
113	0xbbf7df9f	-0.0075644995
114	0x3ccec8c9	0.025242226
115	0xbba497cc	-0.0050229784
116	0x3da55f72	0.080748454
117	0x3a3ae7ab	0.0007129858
118	0xb73b7007	-1.1172152e-05
119	0x3c53d650	0.012929514
120	0xbba1a723	-0.0049332543
121	0x3d2dbfd4	0.04241927
122	0x3cc4aa95	0.024007121
123	0x3c5baafd	0.013407466
124	0xbb3c47cf	-0.0028729325
125	0x3a314a88	0.000676312
126	0x3be12059	0.006870311
127	0xb8be8a7d	-9.0857015e-05
128	0xbc1dc8ac	-0.009630363
129	0x3cdcb902	0.026943687
130	0x3bda97c8	0.0066709258
131	0x3d32d8ee	0.04366391
132	0x3d07332d	0.03300779
133	0x3c059d3d	0.008155164
134	0x3ca8c03f	0.020599483
135	0x3d86c04c	0.065796465
136	0xbb8d0d3d	-0.0043045566
137	0x3c23b2d2	0.009991365
138	0x3cc65070	0.024208277
139	0xbc1b86f1	-0.009492622
140	0x3c456f76	0.0120505
141	0x3c6bc3b8	0.014389925
142	0x3a68db4f	0.0008882777
143	0xbc19e8bd	-0.009393868
144	0xbb0aea1e	-0.0021196674
145	0x3ac3f6ae	0.0014950836
146	0x3c8d43e7	0.017244292
147	0x3d44d941	0.048058752
148	0x3c6efe18	0.014586948
149	0x3c626c0c	0.013819706
150	0x3c5967e2	0.0132693965
151	0xbbc07479	-0.0058732596
152	0x3d6c7ff1	0.057739202
153	0x3d384019	0.044983003
154	0x3cc1d04a	0.02365889
155	0x3d083fb8	0.033263892
156	0x3c866dd1	0.016409786
157	0x3c4b4a47	0.012407846
158	0x3ccbb72c	0.024867617
159	0xbc17f483	-0.009274605
160	0xbb81abcb	-0.003957247
161	0xbb2bd130	-0.0026217215
162	0x3bb7521e	0.005594506
163	0x3ab7e7a2	0.0014030824
164	0xbc40b1dd	-0.011761156
165	0xbb364e15	-0.0027817537
166	0x3c4862bb	0.01223057
167	0x3c356d2d	0.011073393
168	0xbaf96225	-0.0019026442
169	0x3c6693a7	0.014073289
170	0x3c79ac31	0.015238808
171	0xbc06f6c1	-0.008237542
172	0x3ad8f7d7	0.0016553354
173	0x3be45daf	0.0069691758
174	0xbc56f5b2	-0.013120102
175	0x3bb6901e	0.0055713793
176	0x3c93e1c4	0.01805199
177	0x3cd120fd	0.025528425
178	0x3d0776e4	0.033072367
179	0x3ce9444a	0.028474946
180	0x3adb52ab	0.0016733011
181	0x3cc2dd8d	0.023787284
182	0x3b892553	0.0041853576
183	0x3baa74e7	0.005201924
184	0x3b7fc97d	0.0039030008
185	0x3cb4700c	0.022026084
186	0xbc9106f4	-0.01770351
187	0xbb9e2929	-0.004826684
188	0xbd4470df	-0.047959205
189	0x3d2aef19	0.041731928
190	0x3c36e073	0.011161911
191	0x3d12dd23	0.035855424
192	0x3c405f15	0.011741419
193	0x3c56e494	0.013116021
194	0x3c10b1e0	0.008831471
195	0x3c618593	0.013764757
196	0x3caf43be	0.021394607
197	0x3c40db76	0.011771074
198	0xbc3a7ba1	-0.0113820145
199	0x3aedf015	0.0018153215
200	0x3d9f8262	0.077885404
201	0x3c314dab	0.01082174
202	0x3d373b76	0.04473444
203	0x3b78529c	0.0037891036
204	0xbc720d6b	-0.014773707
205	0xbc56075a	-0.013063276
206	0x3c516447	0.012780256
207	0x3d12122d	0.035661865
208	0xbb65f220	-0.0035086945
209	0x3c73d890	0.0148831755
210	0x3c29b90e	0.010359062
211	0xbbac86d3	-0.0052650957
212	0xbc5932a2	-0.013256701
213	0xbb497c59	-0.0030744283
214	0x3ccd3da4	0.025053807
215	0x3cdf0792	0.02722529
216	0x3b8f3a30	0.00437095
217	0xbc82b562	-0.01595563
218	0xbc1f73b6	-0.0097321775
219	0xbc851dc1	-0.01624954
220	0x3c52e56f	0.012872084
221	0x3ce72202	0.028214458
222	0x3be563e6	0.007000434
223	0x3afba91e	0.0019200181
224	0xbb39aa8d	-0.0028330416
225	0x3c88649c	0.016649537
226	0x3bed00e9	0.0072327745
227	0xbc0ff9ca	-0.008787582
228	0x3c7d5fd7	0.0154647445
229	0xbc3c8052	-0.011505203
230	0x3c978fb3	0.018501138
231	0x3d5d1c13	0.05398185
232	0x3cbec25d	0.023286039
233	0xbbe77587	-0.007063571
234	0xbc91685d	-0.01774996
235	0x3cc12fe5	0.023582408
236	0x3c76e56d	0.015069348
237	0xbc02c91c	-0.0079825185
238	0xba917017	-0.0011096027
239	0x3a806291	0.0009795
240	0x3c236945	0.009973829
241	0x3c86a0cc	0.016434096
242	0x3ceb8159	0.028748201
243	0x3c59cb76	0.013293138
244	0x3ce0b25f	0.027428804
245	0xba0ffcc7	-0.0005492684
246	0x3c1df19f	0.0096401265
247	0x3cacd7a6	0.021098923
248	0xbaa640bb	-0.0012684086
249	0xbc1f2b25	-0.009714876
250	0xbb85f7f7	-0.0040883976
251	0x3c3dbcd0	0.011580661
252	0x3c5a4689	0.013322481
253	0x3bd7a5ad	0.0065810294
254	0xbc4a06c4	-0.012330715
255	0x3cdc9dea	0.026930768

transformer_encoder.layers.0.linear2.bias f4 [16]
0	0xbbe333dc	-0.0069336724
1	0xbc413f01	-0.011794806
2	0x3c055516	0.008137962
3	0xbc860a38	-0.016362295
4	0x3acba8f6	0.0015538025
5	0xbbfbc288	-0.007683102
6	0x3c27ac72	0.010233985
7	0x3bbaeacb	0.005704259
8	0xbc2b5eda	-0.010459626
9	0xbcb4b5a5	-0.022059271
10	0xbc5d0312	-0.013489502
11	0xbcbb4ffa	-0.022865284
12	0x3bcdea9a	0.00628407
13	0x3c3d61c2	0.011558952
14	0x3bb83b5d	0.005622311
15	0xbc21b580	-0.009869933

transformer_encoder.layers.0.norm1.weight f4 [16]
0	0x3f7f569b	0.99741524
1	0x3f880dfe	1.062927
2	0x3f77fa35	0.9686616
3	0x3f81d8e9	1.0144321
4	0x3f77da91	0.9681788
5	0x3f83e372	1.0303786
6	0x3f796536	0.9742006
7	0x3f7fe476	0.9995798
8	0x3f87ea00	1.0618286
9	0x3f82593b	1.0183481
10	0x3f7d47b6	0.9893755
11	0x3f8304a5	1.0235792
12	0x3f789856	0.97107446
13	0x3f7a3213	0.9773266
14	0x3f8071fc	1.0034785
15	0x3f7a932c	0.97880816

transformer_encoder.layers.0.norm1.bias f4 [16]
0	0x3c38bf48	0.011276074
1	0xbc19bf5e	-0.009384004
2	0xbb08fbcc	-0.0020902036
3	0xbcac5fe5	-0.02104182
4	0x3c88e528	0.016710833
5	0x3cd39d0b	0.02583172
6	0x3c467b8a	0.012114415
7	0x3acdd6a4	0.0015704227
8	0x3c3bb951	0.011457757
9	0xbbc5e2a5	-0.006038981
10	0xbc2526e9	-0.010080078
11	0xbbeabe4a	-0.0071637975
12	0x3d3ba6b9	0.045813296
13	0x3cc7302c	0.024314962
14	0xbba8b221	-0.0051481877
15	0xbc9f34e0	-0.019434392

transformer_encoder.layers.0.norm2.weight f4 [16]
0	0x3f7e31d2	0.9929477
1	0x3f844754	1.0334268
2	0x3f7eb064	0.994879
3	0x3f7c1d0e	0.98481834
4	0x3f7c7130	0.9861021
5	0x3f826c0b	1.0189222
6	0x3f816e3d	1.0111767
7	0x3f7f9841	0.99841696
8	0x3f86bbb6	1.0526035
9	0x3f7b1c0f	0.9808969
10	0x3f7da670	0.9908209
11	0x3f81ccd2	1.0140631
12	0x3f75001e	0.95703304
13	0x3f7b297f	0.98110193
14	0x3f80045c	1.000133
15	0x3f83ee78	1.030715

transformer_encoder.layers.0.norm2.bias f4 [16]
0	0x3c606558	0.013696037
1	0x3c282fe2	0.010265322
2	0xbbd20665	-0.0064094537
3	0xbce62643	-0.028094416
4	0x3d08f289	0.033434425
5	0x3d05fee7	0.032713797
6	0xbbc765b0	-0.00608512
7	0x3bcd8fce	0.0062732464
8	0xbb83f0f9	-0.004026529
9	0xbc10b8ae	-0.008833094
10	0xbc8d5fde	-0.017257627
11	0xbc8c5fee	-0.017135587
12	0x3d4b4781	0.04962874
13	0x3c24259e	0.010018734
14	0xbc258a8c	-0.010103833
15	0x3c5de2e4	0.0135428645

transformer_encoder.layers.1.self_attn.in_proj_weight f4 [48, 16]
0	0x3e663f1c	0.22485012
1	0xbe43718d	-0.19086285
2	0xbe93aae4	-0.28841317
3	0x3e181d54	0.14854938
4	0xbe054c37	-0.13017355
5	0xbdbf8e6f	-0.09353339
6	0xbddad6eb	-0.106855236
7	0xbdcc468c	-0.09974393
8	0x3e7cdc82	0.24693492
9	0xbd9345a0	-0.07191014
10	0x3e0c3043	0.13690285
11	0x3dc480f0	0.095949054
12	0xbc960010	-0.018310577
13	0x3dd42a18	0.10359591
14	0xb9c3d4af	-0.0003735176
15	0xbe2758ef	-0.16342519
16	0xbe1436bb	-0.14474003
17	0xbe7dbe26	-0.24779567
18	0x3e3bfba7	0.18357717
19	0x3e78482b	0.2424628
20	0xbca78ba3	-0.020452326
21	0x3dbc447e	0.09192751
22	0xbd4277b4	-0.04747744
23	0x3e789566	0.24275741
24	0xbe307356	-0.17231497
25	0xbe75f429	-0.24018921
26	0x3dbcc3e0	0.09217048
27	0x3e523b69	0.20530476
28	0x3bc889ca	0.0061199414
29	0xbe96b925	-0.2943813
30	0x3e84b698	0.25920558
31	0xbe8b209e	-0.27173322
32	0x3e6d486f	0.23172162
33	0xbcd69647	-0.026194705
34	0x3e837c3b	0.25680718
35	0x3e40c90b	0.18826692
36	0xbd6d3657	-0.05791315
37	0x3c87bf2b	0.016570648
38	0x3e272695	0.16323312
39	0x3e12b4f1	0.14326836
40	0x3e16d9fd	0.14731593
41	0xbe1972b5	-0.14985164
42	0x3dc03037	0.09384196
43	0xbca97050	-0.020683438
44	0xbe1d7691	-0.1537726
45	0x3d812ed1	0.06307758
46	0xbe3f9116	-0.1870769
47	0x3e85305b	0.26013455
48	0xbe1e731c	-0.15473598
49	0x3b22e350	0.0024854727
50	0xbe8d311d	-0.27576533
51	0xbe360a4f	-0.1777737
52	0xbd7b79c6	-0.06139543
53	0xbe6c9b90	-0.23106217
54	0x3e483860	0.19552755
55	0xbd91c766	-0.0711811
56	0xbe8bed91	-0.27329686
57	0xbe61e8ab	-0.22061412
58	0x3e853c2e	0.26022476
59	0x3e8a435c	0.27004516
60	0x3e44a86d	0.19204874
61	0x3e188524	0.14894539
62	0x3e8609b1	0.2617927
63	0x3dcd5641	0.10026217
64	0xbe0488ec	-0.12942857
65	0xbe771bad	-0.24131651
66	0x3c96a44b	0.018388888
67	0x3c8b0850	0.016971737
68	0x3e5fd7a7	0.21859609
69	0x3e938f3b	0.28820214
70	0x3d3e214d	0.046418477
71	0xbe82318e	-0.25428432
72	0x3e224e1f	0.15850113
73	0x3e6071c0	0.21918392
74	0x3e44bc81	0.19212534
75	0xbe67f540	-0.22652149
76	0xbe6b1eea	-0.22961012
77	0xbe404eda	-0.1878008
78	0x3cae2237	0.02125655
79	0x3d5c9886	0.053856395
80	0x3e6ef5b6	0.23335919
81	0xbde18ec1	-0.11013556
82	0x3dcec1cb	0.10095557
83	0x3e75d70c	0.24007815
84	0xbe6196e3	-0.22030215
85	0xbdf92681	-0.12165547
86	0x3e6ef92f	0.23337243
87	0x3e8ae0ee	0.27124733
88	0xbe94467b	-0.28960022
89	0x3e4b9b49	0.19883455
90	0x3e3070cf	0.17230533
91	0xbb9c8a49	-0.004777227
92	0x3e935aa9	0.28780106
93	0xbdc7431d	-0.09729598
94	0x3dd3d447	0.10343223
95	0xbe97ac8b	-0.29623827
96	0xbe3f5856	-0.18686041
97	0xbe4e60fc	-0.20154184
98	0xbe494ed1	-0.19658972
99	0x3e325624	0.17415673
100	0x3eaaecf0	0.33383894
101	0xbea6e094	-0.32593215
102	0x3e53ac85	0.2067128
103	0xbe4b6160	-0.19861364
104	0xbe190f8b	-0.14947335
105	0xbd069d32	-0.032864757
106	0xbdff13d8	-0.12454957
107	0xbcfb68cb	-0.030689618
108	0xbe7c685e	-0.24649188
109	0x3d834390	0.06409371
110	0x3e0cc0f6	0.13745484
111	0xbdb7dd2d	-0.08977733
112	0xbe3d2bf7	-0.18473803
113	0xbe91cfca	-0.28478843
114	0x3e4f7ab7	0.20261656
115	0x3e3c48d8	0.18387163
116	0x3e3048c2	0.17215255
117	0x3e82b7d7	0.25530884
118	0xbdb8283c	-0.08992049
119	0xbd8d5754	-0.06901422
120	0x3e3fcdd7	0.18730865
121	0x3cf58fd9	0.029975818
122	0xbda37c04	-0.079826385
123	0xbdfe8a0e	-0.124286756
124	0xbe1e7d6b	-0.1547753
125	0x3d961974	0.073290735
126	0x3dde3b4c	0.10851154
127	0xbd812b89	-0.06307132
128	0x3d8e448c	0.06946668
129	0xbe69f928	-0.22848952
130	0xbe82497b	-0.25446686
131	0xbc302142	-0.010750117
132	0xbe1945b4	-0.14967996
133	0xbd405c49	-0.04696301
134	0x3d79ca66	0.060984038
135	0x3e892b97	0.2679107
136	0xbd0e6ac6	-0.034769796
137	0x3e30e901	0.17276384
138	0x3cc7355b	0.024317434
139	0x3d12bbd3	0.035823654
140	0xbe6f0c5a	-0.23344555
141	0x3e8506d2	0.25981766
142	0xbe85f81e	-0.2616586
143	0x3e4ea6ac	0.20180768
144	0xbe0481ed	-0.12940188
145	0x3e40b255	0.18818028
146	0x3e32c44d	0.17457695
147	0xbe6aeb17	-0.22941242
148	0xbc7a636a	-0.015282491
149	0xbb2e7bdd	-0.0026624121
150	0x3d46ac67	0.04850426
151	0xbe8a4947	-0.2700903
152	0xbe63e508	-0.22255337
153	0xbd981b7f	-0.074271195
154	0xbe6a5d88	-0.22887242
155	0x3e977173	0.29578742
156	0xbe2b6d6d	-0.16740961
157	0x3c2b2760	0.010446399
158	0xbc2acac8	-0.010424323
159	0xbd8bb57c	-0.06821725
160	0x3db26804	0.08711246
161	0xbe2b9144	-0.16754633
162	0x3ea64c80	0.3248024
163	0x3d89ed4e	0.067347154
164	0x3dcddc6a	0.10051806
165	0x3d1edc75	0.038784463
166	0xbdf4ef4f	-0.11959707
167	0x3c58ff2a	0.01324443
168	0xbe13e943	-0.14444451
169	0xbe8833d1	-0.26602033
170	0x3d2e4505	0.04254629
171	0x3e1f31ee	0.1554639
172	0xbe3e0932	-0.18558195
173	0x3d7c1733	0.061545562
174	0x3e6c6cb7	0.23088346
175	0x3c910fc8	0.01770772
176	0xbe9ccddf	-0.30625817
177	0x3d7761f9	0.06039617
178	0xbe3d2d06	-0.18474206
179	0x3e58a2b3	0.21155815
180	0x3cbc7a14	0.02300743
181	0xbdf22dd2	-0.11825146
182	0x3e0902a3	0.13379912
183	0xbe3736b3	-0.1789196
184	0x3e4a0fec	0.19732636
185	0xbe254478	-0.161394
186	0x3e44393b	0.19162457
187	0xbe81cb4b	-0.25350413
188	0xbe8f3eda	-0.2797764
189	0xbe7fec23	-0.24992423
190	0xbe13c645	-0.14431103
191	0x3db2076b	0.08692821
192	0xbe76c9a3	-0.24100356
193	0x3df5e9bf	0.12007474
194	0x3dce548c	0.1007472
195	0x3e884239	0.26613024
196	0x3e2fd4d7	0.17171036
197	0xbddffcf2	-0.10936917
198	0x3cb31b73	0.021863675
199	0x3d274312	0.040835448
200	0xbe8b6678	-0.27226615
201	0x3ea9eba2	0.33187586
202	0x3e889284	0.26674283
203	0xbd541238	-0.051775187
204	0x3e6318f2	0.22177485
205	0x3e4008e3	0.1875339
206	0x3e4d9705	0.2007714
207	0x3d848801	0.06471253
208	0xbe7d08bb	-0.24710362
209	0xbad3356a	-0.0016113941
210	0xbe4221b0	-0.18958163
211	0x3ceb6e52	0.028739128
212	0xbe874624	-0.264207
213	0xbd605957	-0.0547727
214	0xbe8f2e7b	-0.2796515
215	0xbd881ff6	-0.06646721
216	0x3dfbc0ff	0.122926705
217	0x3e5982ab	0.21241252
218	0x3e1b16c1	0.15145399
219	0x3e7168c6	0.23575124
220	0x3e45b06b	0.1930558
221	0x3d5ecf1b	0.05439673
222	0x3e18baa4	0.14914948
223	0xbd7df20a	-0.061998405
224	0x3e915b0d	0.2838978
225	0xbd455dae	-0.048185043
226	0x3e8a825c	0.2705258
227	0xba1eacdf	-0.00060529815
228	0x3e74f480	0.23921394
229	0xbe6d463b	-0.23171322
230	0xbe5301bb	-0.20606129
231	0xbe1586fd	-0.14602275
232	0x3e282c54	0.1642316
233	0xbddbf7e7	-0.10740643
234	0x3e26ae9a	0.16277543
235	0xbd71d45f	-0.059040423
236	0x3e82c30f	0.25539443
237	0xbdf84adf	-0.121236555
238	0x3dc4a223	0.096012376
239	0x3e83a0e6	0.25708693
240	0x3df0ff15	0.11767403
241	0x3d2e7c34	0.042598918
242	0x3e61209d	0.21985097
243	0xbe679ca1	-0.22618343
244	0x3de935db	0.11387225
245	0x3df4c0d6	0.11950843
246	0xbde636a7	-0.11240893
247	0xbd170788	-0.036872417
248	0x3e69faa5	0.2284952
249	0xbd285bbd	-0.041103113
250	0x3df2e629	0.11860306
251	0xbea78ece	-0.3272614
252	0xbdd3cec0	-0.10342169
253	0x3db83867	0.08995133
254	0x3e82957a	0.25504667
255	0x3e273b43	0.163312

transformer_encoder.layers.1.self_attn.in_proj_bias f4 [48]
0	0x3c048de1	0.008090467
1	0x3bf8063c	0.0075691026
2	0xbc29f936	-0.010374358
3	0x3bb459b0	0.0055038556
4	0x3a70077c	0.00091563887
5	0x3a2cb106	0.0006587658
6	0xbbeb571f	-0.0071820165
7	0x3b46189a	0.0030227066
8	0xbc4a67bd	-0.012353835
9	0x3c6cce91	0.014453546
10	0xbc6cbe83	-0.014449718
11	0x3c272bba	0.010203296
12	0xbca1177a	-0.019664515
13	0x3af5bb76	0.0018747884
14	0xbc22eb1b	-0.009943749
15	0xbc44f107	-0.012020356
16	0xb854dc94	-5.0750168e-05
17	0xb6d30f1e	-6.29005e-06
18	0x357f4694	9.509761e-07
19	0xb824df45	-3.9308583e-05
20	0x361ec796	2.366001e-06
21	0x370475e8	7.895265e-06
22	0xb7973afb	-1.8028068e-05
23	0xb6a699be	-4.9650835e-06
24	0x383460cd	4.3005497e-05
25	0xb855d62e	-5.0982628e-05
26	0xb801bf2f	-3.093405e-05
27	0xb7beee3c	-2.2760702e-05
28	0xb86c734c	-5.6374163e-05
29	0x380371bd	3.133876e-05
30	0x38070b8b	3.219726e-05
31	0x36a14332	4.8059965e-06
32	0xbad70579	-0.0016404829
33	0xbc243a69	-0.010023692
34	0x3c289b90	0.010290995
35	0xbc791fd2	-0.01520534
36	0x3be9fb0d	0.0071405233
37	0x3b365336	0.0027820594
38	0xbc1d710b	-0.009609471
39	0x3ca43849	0.02004637
40	0x3c0c60cd	0.008568001
41	0x3c7e3d94	0.015517611
42	0xba3ac50d	-0.00071247
43	0x3c99d6c2	0.018779162
44	0xbcca32cd	-0.024682427
45	0x3b9b51ef	0.004739992
46	0xbc4f3d20	-0.012648851
47	0xbd3a8afc	-0.045542702
